checkpoint_critic.pth (torch, 227023 bytes, 7 tensors)

fcs1.weight f4 [256, 24]
0.11024384 -0.0333749 -0.0129679935 -0.007751744 -0.008003673 0.017954245 0.01320577 -0.0077538583
0.119962335 -0.0307634 0.0065080575 0.012877233 -0.0060330937 0.021714333 -0.0062560625 0.0128764
0.11825016 -0.03183159 -0.0049900403 -0.020949872 -8.215209e-05 0.023427641 0.005181797 -0.020950856
0.002378773 3.6851898e-06 -0.00049422943 -0.00032889377 -0.00014674992 -1.3711689e-05 0.00025244217 -0.00032890803
0.0034960632 -1.9847655e-06 -0.00018869744 -2.4205735e-06 -0.00010141556 -3.9552986e-05 0.00014416174 -2.4153433e-06
0.0038486577 -9.02022e-06 -0.00012153464 0.00040196517 0.000101627 -8.158317e-05 -0.00012442959 0.00040200326
0.075512074 -0.029986981 -0.0012360739 -0.029086752 -0.004423175 -0.01037856 0.0008446776 -0.02908628
0.07918187 -0.03882693 -0.010047553 -0.0002986298 -0.011165541 -0.005002287 0.010074496 -0.00030055037
0.09931113 -0.038530003 0.0027447457 -0.0040703467 -0.017716298 -0.00010171397 -0.0027720903 -0.004070373
0.16161492 0.027154291 -0.0058418075 -0.057220574 -0.15281545 0.03198243 0.011015527 -0.057224005
0.1923176 0.017930737 -0.016376149 -0.093523175 -0.13814867 -0.0010891261 0.021997778 -0.093520075
0.22178835 0.013884823 0.0055824746 -0.09376637 -0.12933591 0.0022309343 0.0010542234 -0.09376115
0.2314251 -0.084662855 0.025592914 -0.04674637 -0.0060698083 -0.06585895 -0.030315384 -0.046745304
0.24254148 -0.09297554 -0.085476175 -0.042453203 -0.02135227 -0.062098376 0.08225357 -0.04244596
0.20972586 -0.09945865 -0.029225705 -0.012960388 -0.05256022 -0.043272678 0.027658418 -0.012950659
0.0020901656 8.6214604e-05 -0.00020474917 2.1597132e-05 -0.00011846614 4.058689e-05 0.00021177248 2.1597507e-05
0.0018558434 9.74669e-05 8.506135e-05 -2.4653018e-05 -0.00013357725 2.2143578e-05 -4.4998662e-05 -2.4652256e-05
0.000871265 9.958815e-05 -0.00020663704 -4.473741e-05 -0.00014886142 -4.860746e-06 0.00028446657 -4.473747e-05
0.058152556 -0.009249875 -0.0051306104 0.009721495 -0.002550917 0.0046221376 0.005409313 0.009726588
0.06497196 -0.011401848 -0.00092642993 0.00026788298 -0.0016761764 -0.0022727654 0.0011604631 0.00027076885
0.061831955 -0.011724688 -0.0021631068 0.0065107984 0.00024122525 -0.00822709 0.0022202823 0.0065130615
0.08291246 -0.016288899 -0.01710531 -0.026664209 0.0063747237 -0.02367536 0.01676437 -0.026668467
0.09012301 -0.019162001 -0.0004291349 -0.016394 0.011356452 -0.006218228 0.000121577024 -0.016395137
0.093260035 -0.021297954 -0.0036397856 -0.01151626 0.018817598 0.008206993 0.0039126836 -0.011515028
0.07524364 -0.00031519376 -0.008256328 0.019468196 0.000866875 -0.0025959273 0.008448446 0.019468203
0.0713773 -0.0011932168 -0.0031761485 0.017088944 -0.0014553876 -0.0013591506 0.0032264544 0.017088993
0.07317441 -0.0013974478 -0.0005799429 -0.0005570329 -0.0034275772 -0.00030010403 0.000773384 -0.00055661576
0.042880464 -0.011570075 -0.0122344885 -0.041873503 -0.03609672 -0.047082406 0.012140961 -0.04187253
0.024315294 -0.012541497 -0.033844594 -0.028100558 -0.03340626 -0.050208416 0.033787284 -0.028099805
0.019755775 -0.0090421215 -0.028470242 0.033618174 -0.029404277 -0.051097948 0.028351845 0.03361971
0.07026979 -0.0035551153 -0.0031651726 -0.017646793 0.0069233766 -0.014378466 0.0034646 -0.01764477
0.07853446 -0.0077321157 -0.0036658074 0.007907116 0.0013837246 -0.014732229 0.0037368739 0.0079100095
00000000: 86c7 e13d 1fb4 08bd b577 54bc 5702 febb
00000010: d621 03bc c814 933c 045d 583c 1414 febb
00000020: d0ae f53d 8703 fcbc 8b41 d53b 08fb 523c
00000030: 42b1 c5bb 42e2 b13c a8ff ccbb 89f7 523c
00000040: 242d f23d d761 02bd 7e83 a3bb 119f abbc
00000050: 1149 acb8 53eb bf3c 10cc a93b 21a1 abbc
00000060: 30e5 1b3b 144f 7736 2d8f 01ba 606f acb9
00000070: e2e0 19b9 410b 66b7 375a 8439 4a71 acb9
00000080: 351e 653b 0332 05b6 15dd 45b9 2371 22b6
00000090: 10af d4b8 b2e5 25b8 1f2a 1739 4817 22b6
000000a0: c339 7c3b 8d55 17b7 6ae0 feb8 dabe d239
000000b0: 9520 d538 a217 abb8 5079 02b9 f7c3 d239
000000c0: 13a6 9a3d 42a7 f5bc c203 a2ba 5747 eebc
000000d0: 48f0 90bb d60a 2abc 5b6d 5d3a 5a46 eebc
000000e0: 1b2a a23d fd08 1fbd 7e9e 24bc 6a91 9cb9
000000f0: acef 36bc 3aea a3bb 800f 253c 3093 9db9
00000100: a263 cb3d a3d1 1dbd 31e1 333b 8b60 85bb
00000110: c521 91bc 464f d5b8 f5ab 35bb c360 85bb
00000120: 627e 253e ad72 de3c a26c bfbb 1f60 6abd
00000130: a77b 1cbe 0200 033d 787a 343c b863 6abd
00000140: e8ee 443e 7be3 923c 4627 86bc 1489 bfbd
00000150: d876 0dbe 02c1 8eba af34 b43c 7487 bfbd
00000160: 7c1c 633e 2b7d 633c 31ed b63b 9508 c0bd
00000170: a270 04be de34 123b de2d 8a3a d905 c0bd
00000180: b4fa 6c3e b863 adbd 3ba8 d13c 1f79 3fbd
00000190: 3ee5 c6bb 0fe1 86bd f857 f8bc 0178 3fbd
000001a0: cb5c 783e f669 bebd 220e afbd 69e3 2dbd
000001b0: f5ea aebc de5a 7ebd 8f74 a83d d1db 2dbd
000001c0: 60c2 563e fab0 cbbd bf6a efbc cf57 54bc
000001d0: 6349 57bd b13e 31bd e893 e23c 002f 54bc
000001e0: 29fb 083b 1dce b438 f0b1 56b9 7d2b b537
000001f0: 0671 f8b8 d73b 2a38 3e0f 5e39 4b2c b537
00000200: c53f f33a 2567 cc38 f762 b238 f4cd ceb7
00000210: df10 0cb9 f9c0 b937 f2bc 3cb8 51cc ceb7
00000220: 9b65 643a fbd9 d038 b5ac 58b9 6ea4 3bb8
00000230: af17 1cb9 7d19 a3b6 7524 9539 7ea4 3bb8
00000240: 6031 6e3d ca8c 17bc ae1e a8bb e846 1f3c
00000250: 492d 27bb 4d75 973b 9b40 b13b 445c 1f3c
00000260: 0510 853d d1ce 3abc a9db 72ba a572 8c39
00000270: 26b3 dbba adf2 14bb ae1a 983a fbf5 8d39
00000280: 8143 7d3d e818 40bc e9c2 0dbb 8958 d53b
00000290: 69f1 7c39 ebca 06bc 2882 113b 856b d53b
000002a0: 02ce a93d 4c70 85bc 6f20 8cbc e66e dabc
000002b0: 0fe3 d03b d4f2 c1bc 6f55 893c d477 dabc
000002c0: 6a92 b83d a1f9 9cbc 83fd e0b9 b64c 86bc
000002d0: 6910 3a3c 47c2 cbbb 2bf7 fe38 184f 86bc
000002e0: 1eff be3d 0c79 aebc 7889 6ebb b2ae 3cbc
000002f0: 5d27 9a3c a076 063c f835 803b 87a9 3cbc
00000300: 5619 9a3d 9740 a5b9 8d45 07bc c47b 9f3c
00000310: ff3e 633a 6f20 2abb 5a6b 0a3c c87b 9f3c
00000320: 432e 923d b665 9cba ee26 50bb 1dfe 8b3c
00000330: b4c2 beba 8725 b2ba ec72 533b 37fe 8b3c
00000340: 77dc 953d 912a b7ba 4f07 18ba d805 12ba
00000350: 34a1 60bb 4857 9db9 ecbc 4a3a dae9 11ba
00000360: 6da3 2f3d 6990 3dbc 2a73 48bc 8d83 2bbd
00000370: 27da 13bd 7bd9 40bd e2ea 463c 8882 2bbd
00000380: de30 c73c da7a 4dbc a1a0 0abd 2433 e6bc
00000390: 01d5 08bd 57a7 4dbd 8964 0a3d 9031 e6bc
000003a0: ddd6 a13c 6825 14bc 6d3a e9bc 36b3 093d
000003b0: 3de1 f0bc 154c 51bd 2142 e83c d2b4 093d
000003c0: 9ce9 8f3d f0fc 68bb c96e 4fbb 0290 90bc
000003d0: 7edd e23b a893 6bbc 580e 633b c48b 90bc
000003e0: add6 a03d b05d fdbb 0b3e 70bb d98c 013c
000003f0: 185e b53a 725f 71bc 57e6 743b fc98 013c

fcs1.bias f4 [256]
-0.024249664 -3.6344231e-06 -0.033120964 -0.028331827 -0.017092599 4.9618746e-05 -0.013135869 -0.04663018
-0.00011435969 -0.015312603 -0.016692342 0.27228233 -0.01154288 -0.036703892 -0.06573617 -0.04312407
-0.011228495 -0.03104463 -3.645288e-05 -0.028829485 -0.018690024 -0.0031214566 -0.05175888 -0.029952243
-0.033513397 -0.023575513 -0.010799487 -0.0032697942 -0.00064829923 -0.0016821777 -0.067950994 -0.09730089
-0.035212602 -0.033908714 -0.03732151 -0.0045100274 -0.04761319 -0.032286927 -0.0099875275 0.14973438
-0.05588127 -0.015074859 -0.00539923 -0.06195817 -0.061901588 -0.0036401458 -0.018203583 -0.0019246509
-0.017228698 -0.0075502945 -0.040029895 -0.043457028 -0.013103371 -1.9064159e-07 -0.0013605753 -0.0025961464
-0.004882828 -0.068062425 -0.04018239 -0.028308757 -0.044153325 -0.0062016607 -0.00040281477 -0.06969048
-0.0020655922 -0.016151384 0.7591491 -0.0137907965 -0.004890126 -0.029315598 -0.0015492787 -0.00062580896
-0.009471081 -0.00833638 -0.013116599 -0.042222727 -0.049419418 -0.1423282 -0.020787423 -5.35816e-05
-0.07174744 -0.0016157434 -0.0066331453 -0.0013907407 -0.20497063 -0.009167324 -0.05385684 -9.541483e-07
-0.0004378715 -0.07633477 -0.004873596 -0.05415527 -0.084334716 -0.00037746024 -0.08153274 -0.065574266
-0.0051753195 -8.492383e-05 -0.011557155 -0.069355324 -0.060268253 -4.3717478e-06 -0.27869454 -0.010148748
-0.00062505296 -0.0017242866 -0.03331559 -0.013586442 -0.00047711315 0.15763369 -0.00084224856 -0.029576363
-0.03575572 -8.075146e-05 -0.012037069 -0.024342686 -0.016410103 -0.03078758 -0.09972842 -0.07872913
-0.00061939424 -0.055593908 -0.00028193806 -0.00025531076 -7.160059e-05 -0.012416233 -0.05004008 -0.015535099
-0.010649862 -0.011582584 -0.050425854 -0.08401506 -0.00909957 -0.2380205 -0.01709998 -0.016926995
-0.012934118 -0.0009314112 -0.026360791 0.012218507 -0.01466418 -0.02275059 -0.046963632 -0.008162492
-0.0002728371 -0.0062042563 -0.37376842 -0.012912849 -0.02788924 -0.08338568 -0.009812276 -0.006839083
-0.0123547455 -0.040923472 -1.895969e-05 -0.066612475 -0.005649573 -0.0014056856 -0.048518244 -0.013498994
-0.04837032 -1.9170783e-07 -2.3382725e-06 -0.005223521 -0.041059375 0.9221157 -0.0041946885 -0.04769538
-0.03729049 -0.04310538 -0.030467827 -0.00021976199 -0.04120072 -0.061809417 -0.05137557 -0.0019325285
-0.017949428 -0.021085551 -0.012239615 -0.030256359 -0.00090329867 -0.033377234 -0.0022744797 -0.015379558
-0.027567832 -0.033195805 -0.025009628 -0.033240996 -0.04281491 -0.023426821 -0.0031197327 -0.01442089
-0.011956389 -0.0014947497 -0.311946 -0.0043736524 -0.048206776 -0.0001706851 -0.0032114005 -0.014651113
-0.044419408 -0.05068193 -3.168879e-05 -0.022126997 -0.03442156 0.56312406 -0.0005539978 -0.0401529
-0.025938448 -0.022100784 -0.029627452 -0.010054767 -0.30426863 -0.07913565 -0.00089034514 -0.01673184
-0.03246687 -0.0770208 -0.05789858 -0.04482436 -0.00019152634 0.036298953 -7.3684285e-05 -0.012865885
-0.009348402 0.025758186 0.07565802 -0.0014521119 -0.06190051 -0.0016832892 -0.06961378 -0.0017496609
-0.0037724944 -0.0014412416 -0.062143937 -0.00012077894 -0.002968221 -0.007881055 -0.0010565924 -0.01574796
-0.00021204464 -0.055105608 -0.004600385 -0.0031475865 -0.06371968 -1.6057771e-05 -0.00039473097 -0.054215975
-0.054013334 -0.00055853056 -2.5453268e-05 -0.017643074 -0.0011241765 -0.0025178718 -0.03714329 -0.060379773
00000000: 3ba7 c6bc eae6 73b6 d9a9 07bd 2618 e8bc
00000010: c705 8cbc b91d 5038 d437 57bc 4aff 3ebd
00000020: 64d4 efb8 b6e1 7abc 61be 88bc 9768 8b3e
00000030: 591e 3dbc d256 16bd afa0 86bd dda2 30bd
00000040: b9f7 37bc 4f51 febc fbe4 18b8 d02b ecbc
00000050: d21b 99bc 5a91 4cbb 1f01 54bd 685e f5bc
00000060: 5845 09bd 6f21 c1bc 55f0 30bc 0b4a 56bb
00000070: a0f2 29ba 847c dcba e429 8bbd b045 c7bd
00000080: 173b 10bd dde3 0abd 71de 18bd dac8 93bb
00000090: 0c06 43bd 4c3f 04bd baa2 23bc f853 193e
000000a0: c2e3 64bd 8bfc 76bc 06ec b0bb dac7 7dbd
000000b0: 858c 7dbd 838f 6ebb ae1f 95bc 9144 fcba
000000c0: 3323 8dbc 7668 f7bb 63f6 23bd ffff 31bd
000000d0: 85af 56bc 29b3 4cb4 5555 b2ba 1c24 2abb
000000e0: 2100 a0bb 5064 8bbd 4a96 24bd c4e7 e7bc
000000f0: 1eda 34bd 4d37 cbbb e230 d3b9 e2b9 8ebd
00000100: e35e 07bb e84f 84bc 9857 423f cbf2 61bc
00000110: 5a3d a0bb 4427 f0bc 2b11 cbba 540d 24ba
00000120: 982c 1bbc 5095 08bc 01e7 56bc bdf1 2cbd
00000130: 046c 4abd 7cbe 11be 634a aabc cebc 60b8
00000140: 52f0 92bd 5ac7 d3ba db5a d9bb 8449 b6ba
00000150: d2e3 51be 8b32 16bc fd98 5cbd 4910 80b5
00000160: 1e92 e5b9 6755 9cbd b0b2 9fbb ebd1 5dbd
00000170: aeb7 acbd dbe5 c5b9 a3fa a6bd cd4b 86bd
00000180: ba95 a9bb 2219 b2b8 395a 3dbc 2a0a 8ebd
00000190: d8db 76bd 07b1 92b6 0db1 8ebe ef46 26bc
000001a0: 98da 23ba 7501 e2ba ee75 08bd ab99 5ebc
000001b0: 0b25 fab9 ba6a 213e 58ca 5cba 214a f2bc
000001c0: 9774 12bd 1c59 a9b8 2037 45bc 506a c7bc
000001d0: 7b6e 86bc 3c36 fcbc 6a3e ccbd bd3c a1bd
000001e0: d85e 22ba 70b6 63bd 16d1 93b9 3bdb 85b9
000001f0: 4628 96b8 756d 4bbc d4f6 4cbd ee86 7ebc
00000200: c27c 2ebc e1c4 3dbc 578b 4ebd 1610 acbd
00000210: 5d16 15bc a5bb 73be 4215 8cbc 7baa 8abc
00000220: 9fe9 53bc f329 74ba 96f2 d7bc 2230 483c
00000230: 0742 70bc 725f babc f05c 40bd f9bb 05bc
00000240: 930b 8fb9 134d cbbb 935e bfbe 6a90 53bc
00000250: fa77 e4bc 1dc6 aabd abc3 20bc 631a e0bb
00000260: 8f6b 4abc 5f9f 27bd a00b 9fb7 1f6c 88bd
00000270: 0e20 b9bb fb3e b8ba 11bb 46bd e22a 5dbc
00000280: f51f 46bd 3fd8 4db4 37eb 1cb6 122a abbb
00000290: e02d 28bd c60f 6c3f 9973 89bb 3b5c 43bd
000002a0: eabd 18bd 448f 30bd aa97 f9bc e96f 66b9
000002b0: 16c2 28bd df2b 7dbd 316f 52bd e54c fdba
000002c0: ae0a 93bc 9bbb acbc ab88 48bc 2fdc f7bc
000002d0: 59cb 6cba 91b6 08bd 700f 15bb 8bfa 7bbc
000002e0: efd5 e1bc 53f8 07bd fee0 ccbc b627 08bd
000002f0: b05e 2fbd 9be9 bfbc 6e74 4cbb 9945 6cbc
00000300: bbe4 43bc 7aeb c3ba 63b7 9fbe db50 8fbb
00000310: 7874 45bd eff9 32b9 5c76 52bb 390b 70bc
00000320: 20f1 35bd db97 4fbd 94e9 04b8 ad43 b5bc
00000330: 9ffd 0cbd e628 103f 2a3a 11ba 5e77 24bd
00000340: de7c d4bc b40c b5bc 45b5 f2bc c0bc 24bc
00000350: 19c9 9bbe df11 a2bd 0d66 69ba 3611 89bc
00000360: fbfb 04bd 15bd 9dbd 1027 6dbd c099 37bd
00000370: 76d4 48b9 36ae 143d f386 9ab8 6fcb 52bc
00000380: 0a2a 19bc d502 d33c 98f2 9a3d ca54 beba
00000390: 648b 7dbd d0a1 dcba ab91 8ebd e154 e5ba
000003a0: f43b 77bb 0be8 bcba a48a 7ebd b34a fdb8
000003b0: 7c86 42bb 8a1f 01bc 5c7d 8aba de01 81bc
000003c0: 4d58 5eb9 6bb6 61bd d4be 96bb bd47 4ebb
000003d0: 777f 82bd cdb3 86b7 e5f3 ceb9 9211 5ebd
000003e0: 163d 5dbd 5a6a 12ba 7a84 d5b7 3588 90bc
000003f0: 1b59 93ba e102 25bb 9023 18bd c850 77bd

fc2.weight f4 [128, 258]
-3.8543277e-37 5.417577e-37 6.7449266e-37 -4.5117927e-37 -6.9578267e-37 -2.801041e-38 -2.027364e-37 -1.4129734e-37
-3.5115351e-37 1.298912e-38 1.7379094e-38 -3.4901636e-37 -2.8145542e-37 2.949036e-37 -1.0034946e-37 -1.8462556e-37
-5.70976e-37 -2.3491107e-37 -4.7694415e-37 -2.6385e-37 2.7167958e-37 -2.3925438e-37 -1.9749434e-37 -3.8739387e-37
2.2401547e-37 -1.9220248e-37 2.24333e-37 -1.2017183e-37 -1.4101585e-37 -1.3244291e-37 5.024005e-37 -1.6379205e-37
3.884493e-37 9.619275e-38 -5.946813e-37 -4.371527e-37 -1.4277061e-37 3.7306141e-37 -6.1803773e-37 -1.5497118e-37
-2.6373235e-37 4.179396e-37 -9.050194e-38 4.901421e-37 -6.300482e-37 4.40277e-37 2.7028547e-38 -5.0341165e-37
-6.0380686e-37 -5.8316576e-37 4.8672396e-37 -1.4553963e-37 1.6281782e-37 -5.6553545e-37 -2.3291004e-37 1.4759825e-37
-1.4143597e-37 -5.4885108e-37 1.8579941e-37 5.2198446e-38 -6.3130787e-37 -4.9761014e-37 3.2978802e-37 2.4940978e-37
1.8684589e-38 -4.735234e-37 -2.4094033e-37 4.814157e-38 -9.877562e-38 -4.312706e-37 -3.0344415e-38 -6.3098143e-37
4.3409644e-37 2.5002465e-37 -2.2151798e-37 -3.6335575e-37 -6.270386e-38 -5.22075e-37 1.7983435e-38 1.1148751e-37
3.800258e-37 -2.4964332e-37 7.453825e-38 4.4153314e-37 -2.0329724e-37 -6.764807e-37 1.583292e-37 -2.9289676e-37
-2.5040744e-37 -1.250219e-37 -2.003769e-37 -2.4993376e-37 3.1624055e-37 -2.471339e-37 -6.6667454e-37 -6.788832e-37
-2.5915419e-37 3.032388e-37 -2.281313e-37 1.4786821e-37 3.6190936e-37 -5.3825696e-38 9.722072e-38 -5.1514697e-38
-1.6025615e-37 3.1260996e-37 -4.613322e-37 2.9417264e-37 8.547672e-38 -1.9999912e-37 7.304616e-38 1.2701855e-37
-2.8569505e-37 -2.5105246e-37 1.9915005e-37 5.7261517e-38 -1.8768754e-37 -5.982243e-37 -2.5719082e-37 -5.3981156e-38
-4.767033e-37 4.530031e-37 -5.8433263e-37 -1.3622556e-37 -1.2966013e-37 -2.4842228e-37 -5.107786e-37 1.5616747e-37
-4.58079e-37 2.9557678e-37 5.2834145e-37 -2.960798e-37 -4.549866e-37 -5.038511e-37 3.5841152e-37 -4.5552433e-37
-5.97601e-37 -3.667003e-37 -1.4542474e-38 -2.3134059e-37 -1.6135179e-37 5.6141846e-37 2.9366933e-37 -1.1890548e-37
-2.3698706e-37 -1.0502553e-37 -5.300843e-37 -7.7004523e-38 -2.434993e-37 -3.535268e-37 -2.6487734e-37 2.4571538e-37
-7.1626396e-38 -1.842742e-37 -2.1314326e-37 -1.6994347e-37 2.0675399e-37 -5.5455254e-38 2.725526e-38 1.5725413e-37
-2.8631007e-37 -2.704795e-37 2.9556833e-37 1.2695834e-37 -2.189465e-37 -5.594609e-37 1.9130168e-37 4.104915e-37
5.890031e-37 -1.2997928e-37 -2.0974842e-37 5.334741e-37 -7.0257753e-38 -2.4369878e-37 -5.6034576e-37 -1.8524797e-37
-5.8657623e-37 -6.0288053e-37 3.8243372e-37 -2.3187158e-37 -1.9835904e-37 5.1862953e-37 -6.018573e-37 6.7883566e-37
-2.6025077e-37 -8.324229e-39 -2.33117e-37 -1.7476927e-37 -2.9822042e-37 3.3607236e-37 -6.5871673e-37 -2.5020377e-37
6.0437048e-37 -3.1413563e-38 -2.5364933e-37 -3.089131e-37 -2.1002993e-37 -1.8848646e-37 4.5065436e-37 -1.8658408e-37
4.0464842e-38 -4.5905825e-37 -2.4234284e-37 9.148631e-38 -2.162396e-37 -2.5008649e-37 -2.7612499e-37 -3.0837786e-37
5.1590985e-37 3.735186e-37 4.4982685e-37 -1.3489776e-37 -2.2333005e-37 -1.6046397e-37 -2.9275605e-37 1.4589134e-37
-8.27496e-38 -5.0787294e-37 -6.8482008e-37 -2.473605e-38 -5.532339e-37 -6.2446196e-37 2.8577005e-37 -1.0777756e-38
7.213716e-39 -6.072415e-37 -4.3480632e-38 1.9237225e-37 4.459127e-37 -2.6797587e-37 -2.8421817e-37 2.0811293e-37
3.3825166e-37 -2.4936532e-37 -5.9179654e-38 -3.8775767e-37 1.1343545e-37 -2.3187656e-37 -1.0631154e-37 -6.974442e-37
1.0878511e-37 -9.606094e-38 -2.2832318e-37 9.410059e-38 -6.970816e-37 -2.06214e-37 2.786186e-37 -2.896704e-37
1.7497748e-37 -3.791928e-37 2.1026492e-37 -2.5323459e-37 -2.9617513e-37 -5.3676596e-37 2.8995367e-37 -4.5213135e-37
00000000: ee27 0383 c059 3803 9984 6503 4287 1983
00000010: 38c3 6c83 d080 1881 aaf9 8982 f052 4082
00000020: 92fb ee82 6270 8d00 d83d bd00 3a87 ed82
00000030: 738c bf82 74b3 c802 af96 0882 9e4c 7b82
00000040: 064b 4283 48df 9f82 b24b 2283 2791 b382
00000050: 42e5 b802 fed3 a282 5e68 8682 c4d2 0383
00000060: 0075 9802 65ce 8282 52ac 9802 c591 2382
00000070: daf0 3f82 9e45 3482 42f5 2a03 33f1 5e82
00000080: b52e 0403 48ee 0202 0c5c 4a83 5fc1 1483
00000090: 4c54 4282 77e4 fd02 ae4e 5283 93ef 5282
000000a0: a87c b382 ad37 0e03 a65e f681 66c9 2603
000000b0: f064 5683 89d1 1503 4c28 1301 574d 2b83
000000c0: ff76 4d83 e770 4683 a39f 2503 2919 4682
000000d0: bb9d 5d02 1671 4083 a782 9e82 7ce6 4802
000000e0: 3e83 4082 acc3 3a83 a5e5 7c02 0219 8e01
000000f0: acd2 5683 f553 2983 2d71 e002 50bd a902
00000100: 0875 cb00 b521 2183 baf9 a382 c70d 8301
00000110: 4872 0682 f8c0 1283 f135 2581 3cb6 5683
00000120: 22b7 1303 7028 aa02 e0c1 9682 8049 f782
00000130: 36b2 aa81 26a7 3183 80d2 c300 babf 1702
00000140: eb50 0103 00e6 a982 94e9 ca01 f63e 1603
00000150: 605b 8a82 c831 6683 ad81 5702 d055 c782
00000160: 216b aa82 c62b 2a82 945e 8882 9a18 aa82
00000170: e038 d702 cc30 a882 8bdb 6283 1103 6783
00000180: 075f b082 a65f ce02 1442 9b82 8d44 4902
00000190: 814d f602 0987 9281 7a54 0402 813c 8c81
000001a0: 1e21 5a82 56c0 d402 b4fb 1c83 1a34 c802
000001b0: 94b0 e801 c31c 8882 bed9 c601 81e3 2c02
000001c0: 196f c282 82db aa82 d588 8702 74e1 9b01
000001d0: 9077 7f82 b090 4b83 f608 af82 60f3 9281
000001e0: b736 2283 2326 1a03 8dd6 4683 ae6b 3982
000001f0: f67b 3082 4411 a982 17cf 2d83 6c90 5402
00000200: 4fe0 1b83 bd28 c902 08c9 3303 6080 c982
00000210: ecd2 1a83 9f73 2b83 18ec f302 c401 1b83
00000220: 645a 4b83 3490 f982 805a 9e80 3771 9d82
00000230: e59e 5b82 720a 3f03 6adc c702 83d8 2182
00000240: f848 a182 0ef4 0e82 db60 3483 52a0 d181
00000250: 90b7 a582 0e99 f082 2444 b482 a839 a702
00000260: 50fc c281 30d2 7a82 cb0e 9182 a850 6782
00000270: a0b5 8c02 acf6 9681 4a64 1401 110b 5602
00000280: 40da c282 2d14 b882 4427 c902 86ce 2c02
00000290: dc01 9582 eb5f 3e83 7431 8202 daae 0b03
000002a0: 686d 4803 2beb 3082 54bf 8e82 2688 3503
000002b0: 8242 bf81 51da a582 00ad 3e83 7f25 7c82
000002c0: ff99 4783 4d26 4d83 ad22 0203 bacd 9d82
000002d0: 05ff 8682 017b 3003 2acd 4c83 edfe 6603
000002e0: 141e b182 90a4 5a80 b6a6 9e82 34e2 6d82
000002f0: 53f5 ca82 10b8 e402 5226 6083 a547 aa82
00000300: 18a8 4d03 1e08 2b81 f29f ac82 413c d282
00000310: 60f0 8e82 f946 8082 8859 1903 10f7 7d82
00000320: c24f 5c01 9d35 1c83 14ee a482 a70c f901
00000330: 402a 9382 3633 aa82 c2eb bb82 00df d182
00000340: 168e 2f03 1e34 fe02 7211 1903 029d 3782
00000350: 95fd 9782 8869 5a82 4c3d c782 b693 4602
00000360: 0e44 e181 f9d1 2c83 3e08 6983 06ad 0681
00000370: 7841 3c83 4f7e 5483 2a7c c202 005c 7580
00000380: e88c 4e00 32a2 4e83 28bb 6c81 f9eb 8202
00000390: 7abc 1703 fb5f b682 ca6d c182 63a2 8d02
000003a0: c033 e602 91b5 a982 331a a181 75f2 0383
000003b0: 7c66 1a02 98ce 9d82 2ab4 1082 f553 6d83
000003c0: 1412 1402 5ac0 0282 8263 9b82 4515 0002
000003d0: 5f34 6d83 8c57 8c82 359e bd02 b423 c582
000003e0: c12a 6e02 5a08 0183 5119 8f02 b057 ac82
000003f0: fc90 c982 e9a6 3683 0e55 c502 32da 1983

fc2.bias f4 [128]
-3.0215515e-37 -2.5029859e-37 -2.3097197e-37 -0.15812287 -0.032588728 -2.582894e-37 -0.00014732985 -2.5846484e-37
-2.6358554e-37 -2.436601e-37 -0.09925146 0.031765345 0.18020393 0.20130742 0.007027673 -2.290704e-37
-2.2998146e-37 0.33171558 0.015874144 -2.6361774e-37 -0.48998806 -0.3066185 0.041939802 -2.285955e-37
-7.009166e-20 -0.31157896 -2.5063333e-37 -2.6018597e-37 3.4700842e-38 -0.1247662 -1.904353e-37 -2.3006763e-37
0.06911058 -0.026621183 -2.4493448e-37 0.059083045 0.34393758 0.019137101 -6.5102013e-37 -2.4000366e-37
-0.02850515 -2.6370673e-37 -0.004141235 -2.4365217e-37 -0.06997359 -7.374239e-35 -2.2078697e-37 -2.2529429e-37
-2.1039692e-37 -0.016973924 0.042305864 -2.0716444e-37 -0.014259433 -2.4324945e-37 0.016721282 0.056133088
0.49228713 -2.5770103e-37 -2.729497e-37 -2.1923306e-37 5.0119945e-38 -2.393341e-37 -2.6188923e-37 0.068380445
-2.5539218e-37 -2.4078814e-37 -2.7296617e-37 -2.0452056e-37 0.05907044 -0.095959865 0.21003106 0.02841974
0.13728943 -2.0903463e-37 -0.07910093 -4.8641935e-37 1.3260084e-37 -2.574271e-37 -0.014151281 -2.0832028e-37
-2.091894e-37 -4.71553e-37 -2.366244e-37 -6.5383135e-32 -0.090688474 -2.4562157e-37 -0.0023815343 -2.3133267e-37
-0.17447513 -3.7885927e-37 -0.5973908 -2.5888601e-37 0.0976886 -6.461299e-37 -0.11449049 -0.32709572
-2.3517734e-37 -0.17181721 -2.256412e-37 0.050178234 0.069606796 -7.9868985e-38 -2.7122598e-37 -2.4996353e-37
-0.023722284 -0.29047525 -2.575653e-37 -4.6150328e-37 -2.1039862e-37 -2.5727241e-37 -2.3534888e-37 0.0108613875
0.067448035 -2.308117e-37 0.004719427 -0.7808561 -0.07739635 -4.6383625e-37 -2.5892388e-37 -0.2666699
-5.111937e-38 0.072258316 2.6766267e-37 0.08620647 -2.525842e-37 -0.16066733 -2.5435735e-37 -2.4590246e-37
00000000: daa2 cd82 2a58 aa82 fe30 9d82 f6ea 21be
00000010: c27b 05bd 5cc8 af82 8e7c 1ab9 ede6 af82
00000020: 1463 b382 94d3 a582 5944 cbbd 611c 023d
00000030: 6187 383e 8823 4e3e 6548 e63b b1e5 9b82
00000040: 6c84 9c82 a0d6 a93e 7e0a 823c b068 b382
00000050: b7df fabe 1afd 9cbe 12c9 2b3d f492 9b82
00000060: cf7f a59f 4787 9fbe 7c92 aa82 ca12 b182
00000070: eaed 3c01 6c85 ffbd 829a 8182 6f93 9c82
00000080: d989 8d3d ab14 dabc 9bb1 a682 1001 723d
00000090: 9618 b03e 69c5 9c3c da87 5d83 8956 a382
000000a0: a283 e9bc 3178 b382 32b3 87bb 32d2 a582
000000b0: 504e 8fbd 780a c486 8442 9682 cd53 9982
000000c0: 5030 8f82 e60c 8bbc ea48 2d3d 23fd 8c82
000000d0: 66a0 69bc 088c a582 12fb 883c cfeb 653d
000000e0: 0f0d fc3e da61 af82 8bc2 b982 c933 9582
000000f0: 8170 8801 e2e1 a282 8a3b b282 0c0b 8c3d
00000100: 98cf ad82 36df a382 6ac5 b982 8230 8b82
00000110: d8f3 713d 9b86 c4bd 6212 573e 84d0 e83c
00000120: 9a95 0c3e f842 8e82 abff a1bd 1a85 2583
00000130: a67c 3402 2032 af82 c6da 67bc 83c6 8d82
00000140: ef5d 8e82 0f76 2083 c909 a182 8cbe a98b
00000150: e1ba b9bd 5029 a782 8413 1cbb d66f 9d82
00000160: 9ca9 32be 4ceb 0083 9aee 18bf 4e30 b082
00000170: f610 c83d dadd 5b83 fd79 eabd 1779 a7be
00000180: ac0d a082 daf0 2fbe 3e90 9982 b187 4d3d
00000190: 028e 8e3d 8f6c d981 3b96 b882 ca1d aa82
000001a0: 3c55 c2bc 2cb9 94be 344a af82 9b0a 1d83
000001b0: 9c30 8f82 2d17 af82 8f2b a082 f6f3 313c
000001c0: 3222 8a3d 1215 9d82 6ca5 9a3b 2fe6 47bf
000001d0: fa81 9ebd d6d5 1d83 e736 b082 f588 88be
000001e0: 0029 8b81 2bfc 933d 6a29 b602 058d b03d
000001f0: 60e6 ab82 fa85 24be 4d1b ad82 405a a782

fc3.weight f4 [128, 128]
1.7347053e-37 -2.6905688e-37 -2.8878102e-37 -2.4018572e-37 1.6886862e-37 6.0328724e-38 -5.9131737e-37 -1.8887272e-38
2.421776e-37 -3.1689865e-37 -2.3151442e-37 2.4119176e-37 2.8360606e-37 -4.298604e-35 -2.798455e-37 -6.5127976e-37
-1.8740203e-38 -1.5085054e-37 -2.393688e-37 -1.6808086e-37 -3.9841276e-30 -2.4398974e-37 -2.0867435e-37 2.9879454e-37
4.3819953e-37 -2.5256093e-37 2.3883202e-37 1.9720767e-37 2.5283819e-37 2.4378463e-37 1.1584295e-37 -3.161423e-37
-2.3062187e-37 -4.8948714e-37 -1.0299698e-38 -2.2512465e-37 -1.7952889e-36 2.3706064e-37 -4.9914996e-37 2.9264184e-37
9.965021e-38 2.4593178e-37 2.3609534e-37 -2.5165726e-37 -2.053551e-37 -4.4789795e-37 -3.6304096e-37 -2.8056296e-37
-9.992795e-38 -2.6854843e-37 -1.3744644e-37 1.47981e-37 -1.4079647e-37 -1.6499991e-37 -1.2218511e-37 -2.0809704e-37
-2.3888596e-37 -4.751363e-37 -3.0846368e-37 -4.4284726e-37 -6.4740994e-37 2.1260222e-37 5.0095707e-37 -9.428793e-36
-1.4443545e-37 7.648196e-38 -1.902662e-37 -3.0699252e-37 -2.6259044e-37 -2.2050315e-37 9.864083e-38 1.5030114e-37
-1.4876044e-37 1.8337715e-37 2.4975053e-37 2.852336e-37 5.1943834e-37 2.3882426e-37 -2.1806778e-37 -2.0372552e-37
-1.6347981e-37 -5.7707215e-37 -4.793906e-37 -6.3674397e-37 -1.6886392e-37 -2.0015883e-37 -1.2970329e-38 -1.2401192e-37
3.1245754e-37 -2.522396e-37 2.1488134e-37 1.9098644e-37 2.5152352e-37 -6.4931906e-37 -3.348042e-27 -3.4308416e-27
-4.754436e-38 3.9522217e-37 2.4820206e-37 -2.2582763e-37 -1.3691903e-37 -2.968679e-37 -3.6840527e-37 1.6971972e-37
-1.4749275e-37 -2.1546379e-37 6.0595563e-37 2.8251249e-37 -7.7734516e-38 -2.5448894e-37 -3.270872e-37 -2.524816e-37
-2.3585665e-37 -2.970646e-37 -2.3256425e-37 -2.177539e-37 2.8569711e-37 2.9535755e-37 -2.3396153e-37 -2.7137355e-37
1.072967e-37 -1.3511027e-37 4.5419783e-38 2.0991292e-37 1.2806764e-38 -2.2390476e-37 -1.269337e-37 -2.2084643e-37
3.046575e-37 -2.5426056e-37 -2.438522e-37 -2.3666938e-37 -1.4426661e-37 -1.2980808e-37 7.015504e-37 -1.790379e-37
-2.452777e-37 2.4970432e-37 -1.8894165e-37 -2.4049143e-37 -1.927645e-30 -1.4194069e-18 -6.5186684e-22 5.8959832e-37
-2.433616e-37 -2.6063116e-37 -2.2930909e-37 2.4104995e-37 -9.280155e-10 -8.360629e-25 -1.2517676e-38 -3.3722223e-37
2.7873795e-37 -2.401257e-37 1.8069024e-37 -4.6741958e-38 -2.6019491e-37 -2.5599633e-37 2.2187528e-37 -9.393105e-38
-1.9756333e-37 -4.9539925e-38 -6.7666075e-37 -1.7364969e-37 -1.797244e-12 -2.461373e-37 -5.0500155e-37 7.381722e-38
6.4870366e-38 2.438333e-37 -2.459066e-37 9.227287e-38 -2.0590157e-37 6.2048944e-37 -6.9784277e-38 -1.862966e-37
9.861522e-38 -9.0767165e-34 -7.423955e-22 2.8446386e-37 -2.0740181e-37 2.3590369e-37 -2.4555742e-37 -2.6893648e-37
-9.02864e-19 -2.0541468e-37 -1.8531847e-37 -1.2870521e-37 -2.346692e-37 -1.3545971e-37 -1.5860624e-37 -1.4386874e-23
6.3744117e-37 -6.5830957e-37 3.3580927e-37 1.2994924e-38 1.9834985e-37 -2.5008057e-37 -2.3758845e-37 -2.5783159e-37
-1.7329638e-25 -2.8450926e-37 3.2477558e-37 -2.8392336e-37 2.5100098e-37 2.1901095e-37 5.4918793e-37 -1.3038181e-37
2.5671214e-37 2.6783018e-37 -2.4448004e-37 -2.4654167e-37 -2.0974922e-37 2.3066231e-37 -2.5037612e-37 4.739077e-37
-2.439179e-37 -3.4720633e-37 -2.4692078e-37 -2.6308755e-37 -2.4213265e-37 3.5874792e-37 -4.353097e-22 -2.1365371e-37
-1.540808e-37 5.761534e-37 1.4724248e-37 -3.2336978e-24 -2.1566714e-37 2.5775215e-37 9.940843e-38 6.1870497e-37
2.5283832e-37 -1.6359157e-32 -6.034754e-37 5.690984e-37 -2.3765668e-37 2.5646304e-37 -2.359115e-38 -2.0566753e-28
-8.919307e-18 6.9563303e-37 -1.4268538e-18 -2.1446936e-37 -3.889223e-37 1.113784e-38 2.5814597e-37 -2.7580161e-37
-4.3941612e-37 -1.8437116e-37 1.8062766e-37 -2.347888e-37 3.335017e-39 -3.6739833e-30 3.2816435e-37 2.590591e-37
00000000: a81d 6c02 521c b782 c088 c482 4176 a382
00000010: 20da 6502 fc3a a401 0237 4983 08aa cd80
00000020: 4ad1 a402 88ab d782 808f 9d82 8825 a402
00000030: 2503 c102 918d 6486 f673 be82 789e 5d83
00000040: 1010 cc80 be53 4d82 ede7 a282 a2c7 6482
00000050: 8c9d a18e 020d a682 3304 8e82 5a59 cb02
00000060: 901c 1503 52e2 ab82 688a a202 6c36 8602
00000070: a012 ac02 46e9 a502 60ad 1d02 c227 d782
00000080: fff3 9c82 5890 2683 5e27 7080 3f36 9982
00000090: eeb9 1884 ca55 a102 18da 2983 6629 c702
000000a0: 08a3 0702 5c5f a702 9cad a002 e144 ab82
000000b0: e8c1 8b82 6a69 1883 a812 f782 f6f0 be82
000000c0: cf03 0882 bcc3 b682 1815 3b82 da6b 4902
000000d0: 69a4 3f82 1496 6082 4c4f 2682 9e9f 8d82
000000e0: ce93 a282 36ae 2183 f4ed d182 70b1 1683
000000f0: 5c4d 5c83 88b0 9002 8477 2a03 3b87 4885
00000100: 6998 4482 2634 d001 0c7d 8182 a4ed d082
00000110: b5b5 b282 1111 9682 5043 0602 4e94 4c02
00000120: 737b 4a82 9c99 7902 aef8 a902 b41e c202
00000130: 76c1 3003 0e89 a202 c468 9482 fea5 8a82
00000140: 6684 5e82 135e 4483 d020 2383 39ac 5883
00000150: 7dd8 6582 9638 8882 003c 8d80 d9cb 2882
00000160: c8a5 d402 56aa ab82 9c3d 9202 88fa 8102
00000170: 942d ab02 abf3 5c83 2ea1 8493 dee8 8793
00000180: 956d 8181 b57c 0603 e6ea a802 b9b0 9982
00000190: 525d 3a82 af09 ca82 40b9 fa82 b102 6702
000001a0: b9c1 4882 16a3 9282 2e32 4e03 9e44 c002
000001b0: 0d9d d381 3a32 ad82 a19a de82 80d4 ab82
000001c0: 0684 a082 f42b ca82 6846 9e82 1432 9482
000001d0: 756f c202 8b02 c902 d939 9f82 f1af b882
000001e0: 710b 1202 0fe7 3782 f049 7701 fddb 8e02
000001f0: 0c74 8b00 b661 9882 f0c5 2c82 e04c 9682
00000200: d356 cf02 700a ad82 0cf5 a582 9f11 a182
00000210: 945d 4482 84af 3082 a9b9 6e03 9ab1 7382
00000220: 67ed a682 a1f0 a902 4796 8082 84ab a382
00000230: 9f63 1c8e ad77 d1a1 c103 459c 42a1 4803
00000240: 929f a582 5a60 b182 470f 9c82 d30c a402
00000250: 4917 7fb0 dd5f 8197 304e 8880 6680 e582
00000260: 00b3 bd02 cc6b a382 5cf1 7502 c87c 7e81
00000270: 5914 b182 da38 ae82 2000 9702 63b4 ff81
00000280: 6374 8682 4adc 8681 7741 6683 165c 6c82
00000290: 8af0 fcab 2a83 a782 d7d7 2b83 18f3 c801
000002a0: 0c98 b001 c1f1 a502 f95a a782 ce30 fb01
000002b0: 1d21 8c82 4124 5303 8bf8 bd81 e492 7d82
000002c0: 643a 0602 15d0 9688 1260 609c 9898 c102
000002d0: 7e26 8d82 388c a002 231e a782 5807 b782
000002e0: 3d3d 85a1 49cc 8b82 103e 7c82 382f 2f82
000002f0: 24b5 9f82 d260 3882 35e2 5782 2d24 8b99
00000300: f5e8 5803 da02 6083 3a8a e402 9080 8d00
00000310: 6bfd 8602 2e32 aa82 bfb1 a182 9978 af82
00000320: d187 5696 81a0 c182 e307 dd02 6d3a c182
00000330: 8ad2 aa02 170d 9502 04e1 3a03 6e77 3182
00000340: 90b5 ae02 9946 b602 6e62 a682 9ec9 a782
00000350: 78bf 8e82 0bfb 9c02 ac65 aa82 2f43 2103
00000360: 7e00 a682 e04b ec82 ab0b a882 510c b382
00000370: 75c9 a482 b426 f402 7590 039c ba67 9182
00000380: 53b9 5182 0a0e 4403 846a 4802 fc31 7a98
00000390: 84c6 9282 c26a af02 c84e 0702 ce88 5203
000003a0: a612 ac02 19e2 a98a 1f5a 4d83 76a7 4103
000003b0: a2bd a182 2a8a ae02 4471 0081 775b 8291
000003c0: 3d88 24a3 2fb6 6c03 0391 d2a1 d5f5 9182
000003d0: e957 0483 c447 7900 5faf af02 6bb3 bb82
000003e0: 8b86 1583 f9f3 7a82 8edb 7502 fac9 9f82
000003f0: ac50 2400 d308 958e 4b56 df02 764e b002

fc3.bias f4 [128]
-2.3121236e-37 -2.6230374e-15 -2.9922373e-06 -0.035295833 -0.12731905 0.05937439 -0.6594 -0.18559046
-8.854843e-14 -0.07170542 -0.029790174 -0.0038410914 -6.0348144e-20 -0.00028180223 -0.0019277616 -1.23485165e-20
-1.913408e-24 -0.17301942 -2.2010776e-05 -0.0760742 -2.7057414e-12 -4.1667325e-22 -0.43343225 -5.5323e-11
-0.3498678 -1.2155774e-35 -6.4227505e-24 0.024571178 0.10247161 -0.02443409 -0.034690555 -2.6480682e-37
0.15143539 -0.016463544 -0.028284723 -2.5473301e-37 0.105030864 -0.00022974273 -0.56219757 -0.03797486
-2.252191e-37 -0.0005320042 -0.027673513 -0.016994536 -0.007231274 -0.4685272 -0.017280439 -0.00097504177
-0.1455071 -0.0018396488 -0.032089982 -0.02609009 0.09542998 -0.00033437737 -0.02736873 -0.37108523
-0.032500766 -0.000113058275 -0.018653 -0.0071547893 -5.662736e-09 0.03504874 -0.035375625 0.01490937
-0.0019456227 0.023139318 -0.009229534 -0.010908838 -1.1798553e-31 0.065222725 0.14735396 -0.032220207
-0.0041742586 -0.54552543 -0.030128509 -0.0364462 0.202608 -2.9853403e-05 -1.0781399e-10 0.2667724
-0.050287828 -0.12680335 -1.0536664e-05 -2.6027976e-15 -8.266124e-12 -0.008163904 -1.0894565e-16 -0.13191454
-0.0033322615 -0.014294535 -0.15380608 0.09136041 -6.106919e-10 -3.8136342e-05 -0.036191706 -2.3965438e-13
-0.029580446 -4.8178134e-13 -0.040390782 -0.006459696 -0.009370492 -0.009762564 -0.011954181 -0.07726247
-0.08365472 -5.196407e-26 -5.9102944e-18 -7.3347173e-09 -0.6206145 -0.03657145 -0.0045199273 -1.3378927e-08
-0.39153072 -0.0030889353 -0.22772725 -0.005789765 0.031513676 -8.199581e-06 -1.4695748e-16 -0.17220834
-0.016412836 -0.028252238 -2.5294105e-37 -0.0005623445 -7.252306e-13 -0.026322192 0.2689274 0.1624427
00000000: e05a 9d82 8002 3da7 3fce 48b6 5d92 10bd
00000010: ed5f 02be 8f32 733d 70ce 28bf 6d0b 3ebe
00000020: b264 c7a9 4bda 92bd 860a f4bc d2ba 7bbb
00000030: 377e 8e9f dbbe 93b9 f2ac fcba c341 699e
00000040: f30a 1498 012c 31be c8a3 b8b7 cacc 9bbd
00000050: 4e66 3eac 10dd fb9b d5ea ddbe 2950 73ae
00000060: df21 b3be 2a43 8185 d777 f898 7f49 c93c
00000070: a3dc d13d 002a c8bc af17 0ebd db37 b482
00000080: e111 1b3e 8ede 86bc 5db5 e7bc c05c ad82
00000090: 6c1a d73d 18e7 70b9 2eec 0fbf 878b 1bbd
000000a0: b446 9982 3376 0bba 90b3 e2bc 2038 8bbc
000000b0: 53f4 ecbb cce2 efbe b58f 8dbc f299 7fba
000000c0: d0ff 14be 5f20 f1ba c970 03bd e2ba d5bc
000000d0: cb70 c33d 5f4f afb9 6334 e0bc e2fe bdbe
000000e0: 861f 05bd b319 edb8 2dce 98bc b972 eabb
000000f0: f491 c2b1 458f 0f3d 08e6 10bd 6e46 743c
00000100: 4404 ffba ab8e bd3c 7937 17bc fcba 32bc
00000110: 6b27 198c 7e93 853d f5e3 163e 56f9 03bd
00000120: 38c8 88bb 8ea7 0bbf 10d0 f6bc 9c48 15bd
00000130: 7978 4f3e b26d fab7 e115 edae 6496 883e
00000140: 9cfa 4dbd bdd8 01be a1c6 30b7 248d 3ba7
00000150: 506b 11ad e5c1 05bc 2936 fba4 9b14 07be
00000160: 1262 5abb a033 6abc 577f 1dbe 2b1b bb3d
00000170: 9fdd 27b0 96f4 1fb8 c13d 14bd d6e9 86aa
00000180: b152 f2bc 019c 07ab ce70 25bd dcab d3bb
00000190: b186 19bc 29f3 1fbc 78db 43bc c93b 9ebd
000001a0: 2a53 abbd 24a8 8095 270d daa2 db04 fcb1
000001b0: 98e0 1ebf f2cb 15bd e61b 94bb 25d9 65b2
000001c0: b776 c8be bc6f 4abb 5531 69be 12b8 bdbb
000001d0: 7c14 013d ef90 09b7 316e 29a5 6257 30be
000001e0: 3674 86bc 3d71 e7bc 8c24 ac82 4d6a 13ba
000001f0: 5f22 4cab a3a1 d7bc dab0 893e 6157 263e

fc4.weight f4 [1, 128]
0.00010849091 2.4132327e-05 0.0011429111 0.0006679899 -0.13064544 -0.030505072 0.16934673 0.07193622
0.0013503825 -0.06749551 0.0003123609 0.0017301114 -4.12118e-08 -0.00031671964 -0.0056195017 8.6279715e-06
2.1456171e-05 -0.114221945 -0.0012511933 -0.055787027 -0.004528635 8.067212e-07 0.27169695 8.8832865e-05
-0.096627444 2.630337e-06 -1.1468483e-06 -0.042919084 0.18985839 -0.0024151658 0.0076770857 3.020939e-37
0.057763044 -0.009125131 0.0009912802 5.3281054e-37 -0.07933173 -1.6750902e-05 0.14549656 -0.015885502
2.9984839e-37 -0.0007491014 0.0017321727 3.8819333e-05 0.01992281 -0.105190024 0.012759163 0.000203709
0.02339678 0.0052134623 -0.0026213943 0.0025237761 -0.08244328 -0.00011662976 -0.0036610414 -0.07240512
0.0074306885 -0.0032347904 -0.059423372 0.00048650245 -3.6418314e-05 -0.13274665 0.003519077 -0.14239565
-0.060257588 -0.08497052 0.0015317926 0.0032535517 -4.8211845e-08 0.03422504 0.04173393 -0.033593938
-0.0009648087 0.1596903 0.002593387 -0.0006866624 0.033842865 0.0050842343 -0.00021325868 -0.03188348
0.0071925605 -0.08543963 9.848394e-05 0.0006330411 -0.00040411355 -0.017512133 -8.2654e-05 -0.16945949
-0.00046657553 -0.0019501172 0.02539005 -0.08867965 0.00093799626 3.662455e-05 -0.031129561 -0.0019345062
0.030725123 -0.0006954979 -0.0014657528 3.785466e-05 -0.004161728 -0.0023080674 0.002123147 -0.059208043
0.057776466 -4.364804e-10 -6.759831e-05 -6.7583554e-05 -0.07622163 -0.004871693 -0.004540685 -0.0013642651
-0.06386561 0.0007880152 0.04793458 0.001090826 -0.124727316 -4.93494e-05 -4.9650457e-06 -0.09315695
-0.08657246 -0.0129142245 -2.6856988e-37 -0.0009157228 -9.0872025e-05 -0.020013655 0.057027955 0.08165893
00000000: 9d85 e338 c76f ca37 bccd 953a 0b1c 2f3a
00000010: ebc7 05be c6e5 f9bc 3b69 2d3e 4c53 933d
00000020: 51ff b03a 163b 8abd 5fc4 a339 e8c4 e23a
00000030: da00 31b3 640d a6b9 cc23 b8bb dbc0 1037
00000040: c7fc b337 32ed e9bd 15ff a3ba f080 64bd
00000050: f264 94bb 758d 5835 dd1b 8b3e c84b ba38
00000060: 9ce4 c5bd d884 3036 68ed 99b5 eccb 2fbd
00000070: 3d6a 423e c247 1ebb 1090 fb3b 2e98 cd02
00000080: f198 6c3d 9381 15bc d8ed 813a 584e 3503
00000090: ad78 a2bd 4a84 8cb7 0dfd 143e 5022 82bc
000000a0: f510 cc02 585f 44ba 120a e33a f1d1 2238
000000b0: 2935 a33c de6d d7bd cf0b 513c b89a 5539
000000c0: 9baa bf3c b1d5 aa3b b3cb 2bbb f065 253b
000000d0: 06d8 a8bd 2097 f4b8 15ee 6fbb 2349 94bd
000000e0: 227d f33b c7fe 53bb ec65 73bd 4111 ff39
000000f0: debf 18b8 bdee 07be 51a0 663b 2ad0 11be
00000100: a9d0 76bd 0605 aebd 6ec6 c83a 8a39 553b
00000110: 7c11 4fb3 8e2f 0c3d 33f1 2a3d cc99 09bd
00000120: 37eb 7cba db85 233e d0f5 293b 2201 34ba
00000130: d19e 0a3d a699 a63b 319e 5fb9 4098 02bd
00000140: 92af eb3b f9fa aebd 2a89 ce38 abf2 253a
00000150: 34df d3b9 9b75 8fbc 8756 adb8 ca86 2dbe
00000160: b59e f4b9 139b ffba cbfe cf3c ad9d b5bd
00000170: dde3 753a 509d 1938 6c03 ffbc 428f fdba
00000180: 41b3 fb3c 1352 36ba 811e c0ba 22c6 1e38
00000190: 1b5f 88bb f242 17bb 7f24 0b3b 2284 72bd
000001a0: 04a7 6c3d 28f5 efaf 91c3 8db8 a5bb 8db8
000001b0: 161a 9cbd b9a2 9fbb 07ca 94bb 24d1 b2ba
000001c0: f9cb 82bd ce92 4e3a 0d57 443d 0cfa 8e3a
000001d0: 0971 ffbd 84fc 4eb8 6b99 a6b6 12c9 bebd
000001e0: e74c b1bd 2f96 53bc 79c7 b682 1e0d 70ba
000001f0: 8c92 beb8 adf3 a3bc 2596 693d cc3c a73d
