checkpoint_actor.pth (torch, 160023 bytes, 6 tensors)

fc1.weight f4 [256, 24]
0	0x3fc5a82e	1.5441949
1	0xbcfc6805	-0.03081132
2	0x3de4be08	0.11169058
3	0x3e414537	0.1887406
4	0xbf1238a6	-0.5711769
5	0xbf7e6bba	-0.9938313
6	0xbdba3999	-0.09093017
7	0x3e8b8e73	0.27257118
8	0x3fb4ef14	1.4135461
9	0x3efc675e	0.49297613
10	0x3d5a4190	0.05328518
11	0x3f0fb49f	0.5613498
12	0xbf2813f9	-0.65655476
13	0x3d205387	0.039142158
14	0xbb493e3f	-0.0030707268
15	0x3f1e3a94	0.61808133
16	0x3f94498d	1.1584946
17	0x3f5fc3f4	0.87408376
18	0x3d87425d	0.06604455
19	0x3f39832d	0.72465783
20	0xbf35a35f	-0.7095241
21	0x3fab9184	1.3403783
22	0xbdc78853	-0.09742799
23	0x3f2db50f	0.678544
24	0x3f9fddca	1.248956
25	0xbf6d969d	-0.9280794
26	0xbe191788	-0.14950383
27	0x3d3eb224	0.046556607
28	0x3f4e19f0	0.8050833
29	0x3e38714b	0.18011968
30	0x3d9180e8	0.07104665
31	0xbd649e4b	-0.055815022
32	0x3fa24245	1.2676474
33	0xbf76d957	-0.96425384
34	0xbd8f94b2	-0.07010783
35	0x3d486d13	0.048932146
36	0x3e3682e6	0.17823371
37	0x3f8c6148	1.0967188
38	0x3e00a8c8	0.12564385
39	0x3d5f7b8e	0.05456119
40	0x3fbe67c5	1.4875418
41	0xbf8ed6a2	-1.1159251
42	0x3e144172	0.1447809
43	0x3dd78d83	0.10525038
44	0xbe97ac45	-0.2962362
45	0x3fb7c257	1.4356183
46	0xbe5f06da	-0.21779957
47	0x3d8f152c	0.0698646
48	0x3f7613cd	0.96123964
49	0xbe8922c2	-0.2678433
50	0x3d21eb74	0.039531186
51	0x3e809535	0.25113836
52	0xbd79c41e	-0.060978048
53	0x3ee6329e	0.44960493
54	0xbda4fbb1	-0.08055819
55	0x3e538c8f	0.20659088
56	0x3f957779	1.1677085
57	0xbe7b944c	-0.2456829
58	0xbe1d62ad	-0.15369673
59	0xbd0e0561	-0.0346731
60	0xbead9350	-0.33901453
61	0x3e95c3fc	0.29251087
62	0x3d9e57a4	0.0773156
63	0xbc843d59	-0.016142534
64	0x3f9924a3	1.1964306
65	0xbe3bd3d9	-0.18342532
66	0x3dcb78ca	0.09935148
67	0x3ee368a0	0.4441576
68	0xbf10962d	-0.5647915
69	0x3d5888a2	0.05286468
70	0xbe2b5d0e	-0.16734716
71	0x3f050d04	0.51972985
72	0x3e2a73f8	0.16645801
73	0xbf3af4b5	-0.73029643
74	0xbddf4eb0	-0.1090368
75	0x3e0c8b98	0.13725126
76	0xbf3ec78a	-0.7452322
77	0xbfc08f17	-1.5043668
78	0x3e2a7399	0.1664566
79	0x3e0196c6	0.12655172
80	0x3e0d8210	0.13819146
81	0xbf7a9934	-0.9789002
82	0xbe4bd698	-0.1990608
83	0x3ed98651	0.42485288
84	0xbeae7ceb	-0.3407968
85	0x3e2933cf	0.1652367
86	0x3e10c17f	0.14136313
87	0x3efd5a4c	0.49482954
88	0xbd2d7c2e	-0.042354755
89	0xbf95e50e	-1.1710527
90	0x3db3802c	0.08764681
91	0x3fa00d04	1.2503972
92	0x3df8d2bc	0.121495694
93	0x40225f4e	2.537067
94	0xbd1e9411	-0.038715426
95	0x3fa31db7	1.2743443
96	0x3f6c56e7	0.923201
97	0xbfa8e24d	-1.3194062
98	0xbc854a6e	-0.016270842
99	0x3e7d26d8	0.24721849
100	0x3cf6fea4	0.030150719
101	0x3c92689a	0.017872144
102	0x3cac0ea9	0.021003084
103	0x3e2cc7a6	0.16873035
104	0x3f480941	0.7813912
105	0xbfaa7fba	-1.3320229
106	0x3bd5e842	0.0065279314
107	0xbd1c832d	-0.038211036
108	0xbda0d09e	-0.078522906
109	0x3df9bebc	0.12194583
110	0x3d9df043	0.07711842
111	0x3ccbbdae	0.02487072
112	0x3f63024e	0.8867539
113	0xbfa3eb11	-1.2806112
114	0x3aaa38cd	0.0012986899
115	0xbe8b3bc4	-0.27194035
116	0xbe8ab77a	-0.27093107
117	0xbdf2b825	-0.11851529
118	0x3c41d0b6	0.011829546
119	0xbe592432	-0.21205214
120	0x3f0cc79d	0.54992086
121	0x3f587c43	0.8456461
122	0xbcb8b3b8	-0.022546634
123	0x3f29d535	0.66340953
124	0x3d478a61	0.048715953
125	0x3fba14b4	1.4537568
126	0x3d0de77c	0.03464459
127	0x3f2d6fb4	0.6774857
128	0x3f64f16e	0.8943089
129	0x3f75c415	0.9600232
130	0x3db108ba	0.086442426
131	0x3d27a6f5	0.040930707
132	0xbec6f0f9	-0.38855723
133	0x3eaf397e	0.3422355
134	0xbd82b1ee	-0.06381594
135	0x3d86717f	0.065646164
136	0x3fa2e134	1.2724977
137	0x3f6a32ca	0.9148375
138	0x3e7b9f83	0.24572568
139	0xbefc8bd9	-0.49325445
140	0xbf191bb7	-0.59807914
141	0xbf96ad1a	-1.1771576
142	0xbe26c957	-0.16287743
143	0xbf058a5c	-0.52164245
144	0x3e0f9616	0.14022097
145	0xbf701192	-0.9377681
146	0xbd305a45	-0.043054838
147	0xbe00371d	-0.12521024
148	0x3fa797b5	1.3093172
149	0x4022c42b	2.5432231
150	0x3db6a04f	0.08917295
151	0xbd4234d4	-0.047413662
152	0x3ea1086d	0.3145174
153	0xbf4584bb	-0.77155656
154	0x3d1db327	0.03850093
155	0x3dd6216d	0.10455594
156	0xbed83c48	-0.4223349
157	0x3fec5ddf	1.8466147
158	0xbc38c682	-0.011277797
159	0x3dd8f0dd	0.10592816
160	0x3ecfe3be	0.4060344
161	0xbf2b3412	-0.6687633
162	0xbcdbeb9b	-0.026845744
163	0x3db5a3cc	0.088691324
164	0xbff8cda6	-1.9437759
165	0x3f597338	0.84941435
166	0x3df98ab9	0.12184662
167	0x3df5181a	0.11967488
168	0x3dcf301f	0.101166
169	0xbe9ebca1	-0.31003287
170	0xba04e67e	-0.00050697464
171	0x3e2bcc85	0.16777237
172	0xbe993c69	-0.29928902
173	0x3f85a61e	1.044132
174	0xbda82def	-0.08211886
175	0x3dd486be	0.103772625
176	0x3e422d6a	0.18962637
177	0xbd10da5e	-0.0353645
178	0x3d7c283e	0.061561815
179	0x3e848d5a	0.25889093
180	0xbdef6ed4	-0.11691061
181	0xbf81afcc	-1.0131774
182	0xbe0ea8f4	-0.13931638
183	0x3e8989ba	0.2686289
184	0x3eae4e04	0.34043896
185	0x3cee8ba1	0.029119315
186	0x3adf961b	0.0017058285
187	0x3fafd8bc	1.3738017
188	0xbd7172a2	-0.058947213
189	0xc0479cc8	-3.1189442
190	0x3c7a6e8c	0.0152851455
191	0x3fad9b13	1.356295
192	0x3e90949f	0.2823839
193	0xbe93b698	-0.28850245
194	0x3d003074	0.03129621
195	0x3d923779	0.07139487
196	0x3c95c33b	0.01828157
197	0x3d213b66	0.039363287
198	0x3ded5236	0.11587946
199	0x3d3c30b0	0.04594487
200	0x3ed96775	0.42461744
201	0xbeaf1a39	-0.34199694
202	0xbb25f116	-0.00253207
203	0xbaf7fc75	-0.0018919843
204	0x3d9506da	0.072766975
205	0x3ca48eb9	0.020087587
206	0x3dc41579	0.09574408
207	0x3ca64177	0.020294888
208	0x3ee5df02	0.44896704
209	0xbec92e02	-0.39292914
210	0xbd2b2432	-0.041782565
211	0x3d2b8753	0.041877102
212	0x3d53e2d7	0.051730003
213	0xbc83775c	-0.016048126
214	0x3c94a144	0.018143304
215	0xbcde9762	-0.027171794
216	0x3f8c7f01	1.0976259
217	0xbf1a74c4	-0.6033442
218	0xbe851c93	-0.25998363
219	0xbe8a4563	-0.27006063
220	0xbeedece2	-0.4646979
221	0x3f21e305	0.6323703
222	0x3e367a1a	0.17820016
223	0xbe85659c	-0.26054084
224	0x3f554fb3	0.83324736
225	0xbf3f0fef	-0.7463369
226	0x3dd921dd	0.10602162
227	0x3f05634f	0.5210466
228	0xbe3a1abd	-0.18174262
229	0x3f2b4ca2	0.6691381
230	0xbd95bbe5	-0.07311229
231	0x3ee5232a	0.4475339
232	0x3f6d11f3	0.92605513
233	0xbf5ce6b8	-0.8628955
234	0x3e507463	0.20356898
235	0x3ef417c4	0.47674382
236	0x3d7b27c3	0.061317217
237	0x3f128e31	0.57248217
238	0xbe6d9ee2	-0.2320514
239	0x3ee599c3	0.44843873
240	0x3ec10258	0.376971
241	0xbf229848	-0.6351361
242	0x3cb644c0	0.02224958
243	0x3cf52530	0.029924959
244	0x3efc1908	0.49237847
245	0x3f360a39	0.7110935
246	0xbdcc82e8	-0.09985906
247	0x3dabad6f	0.08382689
248	0x3ec540e9	0.38526085
249	0xbf5a3a61	-0.8524533
250	0xbd2f6468	-0.042820364
251	0xbf6593a2	-0.89678395
252	0xbe70b96d	-0.23508234
253	0x3fb66959	1.42509
254	0xbd9f067c	-0.07764909
255	0xbf61c333	-0.88188475

fc1.bias f4 [256]
0	0xbf3816e9	-0.7190996
1	0xbf7e0436	-0.99225175
2	0xbf27ec87	-0.6559529
3	0x3b474478	0.00304058
4	0xbf7675d2	-0.9627353
5	0xbf512cf7	-0.81709236
6	0xbf099d65	-0.5375579
7	0xbe9d7887	-0.30756018
8	0xbefbb062	-0.49158007
9	0xbf73186b	-0.94959134
10	0xbf931560	-1.1490898
11	0xbfa90f65	-1.3207823
12	0xbf53c9cf	-0.8272981
13	0xbea1193a	-0.3146456
14	0xbf358e8e	-0.70920646
15	0xbf86afef	-1.0522441
16	0xbf90d40d	-1.1314713
17	0xbf7c94f7	-0.986648
18	0x3d8525f9	0.06501383
19	0xbfc2363a	-1.5172799
20	0xbebc8657	-0.36821243
21	0xbf84a3d2	-1.0362494
22	0xbddf1da7	-0.108943276
23	0xbfbbe75e	-1.4679983
24	0xbf29b883	-0.6629717
25	0xbfc00457	-1.5001324
26	0xbf1add48	-0.604939
27	0xbf0f067b	-0.55869263
28	0x3f586d81	0.8454209
29	0xbfa53443	-1.2906574
30	0xbf6b2295	-0.91849643
31	0x3ca1ed06	0.019766342
32	0xbda36925	-0.07979039
33	0xbf646ae3	-0.89225596
34	0x3ef8e0da	0.48609048
35	0xbf6879c5	-0.90810806
36	0xbe7507c1	-0.23928739
37	0xbc8e94f2	-0.017405007
38	0xbf81aaa0	-1.0130196
39	0xbef65815	-0.48114076
40	0xbf7bc634	-0.9834931
41	0xbe979618	-0.296067
42	0x3e279afe	0.16367719
43	0xbf7f7ec3	-0.998028
44	0xbf53e3ec	-0.82769656
45	0xbf225954	-0.63417554
46	0x3f65948a	0.8967978
47	0xbeab58d7	-0.33466217
48	0x3e27e346	0.16395292
49	0xbf42ec7d	-0.761421
50	0xbf94321c	-1.1577792
51	0xbf166e9b	-0.5876252
52	0xbf8d4329	-1.1036121
53	0xbf64413e	-0.8916205
54	0xbf202142	-0.6255075
55	0xbf08ee25	-0.5348838
56	0xbeed63bb	-0.4636515
57	0xbf13b5f6	-0.57699525
58	0xbf4c54b4	-0.79816747
59	0xbf1c6007	-0.61084026
60	0xbe33b64b	-0.17550008
61	0xbedc8d7a	-0.43076688
62	0x3f7533e2	0.9578229
63	0x3c087b4f	0.00833018
64	0xbef150ba	-0.47131902
65	0x3e12df61	0.14343025
66	0xbf1cf6e0	-0.613142
67	0xbf146f7e	-0.57982624
68	0xbf3031cb	-0.6882598
69	0xbf3e0edd	-0.7424143
70	0xbf2c8fe4	-0.6740706
71	0xbfac92a7	-1.3482255
72	0xbf2c352b	-0.6726863
73	0xbea26e89	-0.31724957
74	0xbf825492	-1.0182059
75	0xbe50475d	-0.20339723
76	0xbf1cae0f	-0.6120309
77	0x3dec2c21	0.115318544
78	0xbf6a23ea	-0.9146105
79	0xbfa36ef2	-1.2768233
80	0xbf82968e	-1.0202196
81	0xbecd90b1	-0.40149453
82	0xbfb06fe2	-1.3784144
83	0xbf8b65d1	-1.0890447
84	0xbf07f22f	-0.5310392
85	0xbeedf5c8	-0.4647658
86	0xbf12d5f3	-0.5735771
87	0xbe054441	-0.13014318
88	0x3e9c65cb	0.30546412
89	0xbf5344f7	-0.82527107
90	0xbf8b998e	-1.0906236
91	0xbf83a860	-1.0285759
92	0xbf437760	-0.76354027
93	0xbe0a4587	-0.13503085
94	0xbe8b5851	-0.27215818
95	0xbf50a557	-0.8150229
96	0xbeaa647f	-0.33279797
97	0xbf5c92b9	-0.8616138
98	0xbee3c606	-0.44487017
99	0xbf1f56e4	-0.6224196
100	0xbf38e055	-0.72217304
101	0xbf111920	-0.5667896
102	0xbf8237fa	-1.0173333
103	0xbf8a0a54	-1.0784402
104	0x3f4d4228	0.8017907
105	0x3e391ca6	0.18077335
106	0xbf2b8513	-0.6699993
107	0xbf05fdbe	-0.52340305
108	0x3f88bbf1	1.0682355
109	0xbefa865b	-0.4893063
110	0xbfa376ce	-1.2770631
111	0xbfa43ac3	-1.2830433
112	0xbf6f983d	-0.9359167
113	0x3d18c537	0.037297454
114	0xbfad1063	-1.3520626
115	0xbf82b50b	-1.02115
116	0xbef6966c	-0.48161638
117	0xbeaab4f3	-0.33341178
118	0xbf6e5746	-0.9310192
119	0xbe95b1e3	-0.2923728
120	0x3e920047	0.28515837
121	0xbe0524e9	-0.13002361
122	0xbdcd6b5d	-0.100302435
123	0xbf84cabc	-1.037437
124	0xbf4ada74	-0.79239583
125	0xbf7d6d3c	-0.98994803
126	0xbebb6088	-0.36597085
127	0xbf714a46	-0.9425396
128	0xbf28139b	-0.65654916
129	0xbf40a10a	-0.75245726
130	0xbf5106fd	-0.8165129
131	0xbf16b019	-0.58862454
132	0xbf23d8d1	-0.6400271
133	0xbe9b292e	-0.30304855
134	0xbf2291bf	-0.6350364
135	0xbed80731	-0.42192987
136	0xbf51bcad	-0.8192852
137	0x3ecc4a5d	0.39900485
138	0xbf327602	-0.69711316
139	0xbeb2fdc0	-0.3495922
140	0xbefbc0d8	-0.49170566
141	0xbf6807b5	-0.9063676
142	0xbf888e5f	-1.0668448
143	0xbda94f49	-0.082670756
144	0xbed0a700	-0.4075241
145	0xbd5e5d64	-0.054288283
146	0xbf51e274	-0.81986165
147	0xbf7e2787	-0.99279064
148	0xbf420181	-0.75783545
149	0xbf4a6ca2	-0.7907201
150	0xbe83e924	-0.2576381
151	0xbee75483	-0.45181665
152	0xbf5dc86c	-0.86633945
153	0xbf86703d	-1.0503002
154	0xbf389977	-0.7210917
155	0xbf1cb151	-0.61208063
156	0xbe9fc066	-0.31201476
157	0xbf278cae	-0.65449035
158	0xbf7695d2	-0.9632236
159	0x3e986791	0.29766515
160	0xbfaed5ee	-1.3659036
161	0xbeb5e6fd	-0.35527793
162	0xbf47671b	-0.778917
163	0x3d29ba3b	0.04143737
164	0xbf44d489	-0.768868
165	0xbf0a0b50	-0.5392351
166	0xbf89ac15	-1.075564
167	0xbf18a36b	-0.59624356
168	0xbe67f4af	-0.22651933
169	0xbf588e91	-0.8459254
170	0xbeacece6	-0.3377449
171	0xbf9d1da8	-1.2274675
172	0xbed2575e	-0.4108228
173	0xbe4e4683	-0.20144086
174	0xbf83eb2c	-1.0306144
175	0xbf925c3b	-1.1434397
176	0xbf39664c	-0.7242172
177	0xbed9531f	-0.4244623
178	0xbf9edf48	-1.241189
179	0xbf365383	-0.7122118
180	0xbf25a5e1	-0.64706236
181	0xbf220741	-0.6329232
182	0xbef3720b	-0.47547945
183	0xbf3972d0	-0.72440815
184	0xbf35d53e	-0.71028507
185	0xbfb27f2b	-1.3945059
186	0x3df7a76a	0.120924786
187	0xbf4e9a87	-0.8070454
188	0xbf7c8292	-0.98636734
189	0xbf1eae8b	-0.6198508
190	0x3f412787	0.7545094
191	0x3e03d289	0.12873282
192	0xbf150b3a	-0.58220255
193	0xbf58f6a2	-0.8475133
194	0xbe65030e	-0.22364447
195	0xbf8eb014	-1.1147485
196	0xbf6466a0	-0.89219093
197	0xbeaf110d	-0.34192696
198	0xbf72af23	-0.9479849
199	0xbd331084	-0.043716922
200	0xbfa970cf	-1.3237551
201	0xbf6396aa	-0.8890177
202	0x3ed99997	0.42499992
203	0xbfa203f3	-1.2657455
204	0xbe9a2797	-0.3010833
205	0xbf7b9b9d	-0.9828432
206	0xbf89c53f	-1.076332
207	0xbf5e00b4	-0.8671982
208	0xbf113134	-0.56715703
209	0xbfbea5ea	-1.4894383
210	0xbf6d490d	-0.9268959
211	0x3eb95c73	0.36203346
212	0xbe9f71f2	-0.3114162
213	0xbf8f84a1	-1.121235
214	0xbf3380cb	-0.701184
215	0x3d93454b	0.07190951
216	0xbf4b26a7	-0.79355854
217	0xbde56697	-0.11201208
218	0xbf567018	-0.8376479
219	0xbf939eaa	-1.1532795
220	0xbee788d0	-0.45221567
221	0xbf1ceca7	-0.612986
222	0xbf2690e8	-0.6506486
223	0xbf462ca6	-0.7741188
224	0xbf5f18c0	-0.8714714
225	0xbfa2eb51	-1.2728063
226	0xbf4763f5	-0.778869
227	0xbf7a29f9	-0.97720295
228	0x3f0b2101	0.54347235
229	0xbe0aba9b	-0.13547747
230	0xbf3fc79c	-0.74913955
231	0xbeaa1c4c	-0.33224714
232	0xbf2ceffe	-0.675537
233	0xbf2c611f	-0.67335695
234	0xbf17e750	-0.5933733
235	0xbf436664	-0.7632811
236	0xbf6cd838	-0.92517424
237	0xbf672917	-0.90297073
238	0xbf62d86d	-0.8861149
239	0xbf292178	-0.66066694
240	0x3edda827	0.43292353
241	0xbec310b4	-0.3809868
242	0xbf09127d	-0.53543836
243	0x3f038491	0.51374155
244	0xbf436d7e	-0.76338947
245	0xbf338cc7	-0.70136684
246	0xbf754f7b	-0.958244
247	0xbf8453e5	-1.0338103
248	0xbf27c34f	-0.6553239
249	0xbf34541f	-0.7044086
250	0x3e93d790	0.288754
251	0xbe94c081	-0.2905312
252	0xbf0fbd98	-0.5614867
253	0xbf0e8566	-0.556723
254	0xbf1949d6	-0.5987829
255	0xbf27ac45	-0.6549724

fc2.weight f4 [128, 256]
0	0xbd5593d1	-0.05214292
1	0xbddcb0bb	-0.10775896
2	0xbb3fe635	-0.0029281501
3	0xbd1dc997	-0.03852233
4	0x3bf9218b	0.0076028756
5	0xbbdb866a	-0.006699373
6	0xbc0074ca	-0.007840345
7	0x3d30ce12	0.043165274
8	0xbd03ed42	-0.03220869
9	0x3d7cfa42	0.061762102
10	0xbdae6cdd	-0.08516858
11	0xbda67747	-0.08128219
12	0xbda5a750	-0.08088553
13	0xbd991039	-0.07473797
14	0x3c1cb369	0.009564259
15	0x3d39ab22	0.04532922
16	0x3a51e9c0	0.0008007549
17	0xbcfe7ea2	-0.031066243
18	0xbd2b4da1	-0.04182208
19	0xbdaf5c3e	-0.08562516
20	0xbd736489	-0.05942205
21	0x3da1977d	0.07890222
22	0x3d03ef2f	0.032210525
23	0x3c3c970a	0.01151062
24	0xbd7fd77a	-0.062461354
25	0xbd8ee15b	-0.06976577
26	0xbd14d590	-0.03633648
27	0xbdd0040b	-0.10157021
28	0xbd752797	-0.05985221
29	0xbd9f3901	-0.077745445
30	0x3d800aba	0.06252046
31	0xbd5cc280	-0.053896427
32	0x3d58c1d7	0.052919235
33	0xbd34468e	-0.0440126
34	0x3d023ade	0.03179442
35	0xba9196b2	-0.0011107533
36	0xbbc0393f	-0.0058661993
37	0xbda01d19	-0.0781805
38	0x3cdeda7c	0.02720379
39	0x3d862866	0.06550674
40	0x3b3cc620	0.0028804615
41	0xbcf75657	-0.030192537
42	0x3c16a8d8	0.009195529
43	0xbdbfb684	-0.09360984
44	0x3d74632d	0.059664894
45	0x3d9d4a6b	0.0768021
46	0x3c8cf00b	0.017204305
47	0xbd9b242d	-0.07575259
48	0xbc0cdef0	-0.008598074
49	0xbccd937f	-0.025094746
50	0xbd887bf0	-0.06664264
51	0xbda7e86d	-0.081986286
52	0xbc936dec	-0.01799675
53	0xbd93456e	-0.07190977
54	0xbcfef1a2	-0.031121079
55	0xbd221104	-0.03956701
56	0x3ca5d0c1	0.020241143
57	0xbc8e9448	-0.01740469
58	0xbdb8e430	-0.09027898
59	0xbd94e917	-0.07271021
60	0xbdb99342	-0.0906129
61	0x3da3d211	0.07999051
62	0xbcd0ba18	-0.025479361
63	0xb8ec822e	-0.00011277605
64	0xbdb85471	-0.09000481
65	0xbc466fff	-0.012111663
66	0xbd1b5d48	-0.037930757
67	0xbd10568d	-0.03523879
68	0xbd87c8ee	-0.06630121
69	0xbd01aa81	-0.031656746
70	0xbce9deed	-0.028548682
71	0xbdac16e4	-0.084028035
72	0xbd7d1ec5	-0.061796922
73	0x3d7b5a1b	0.06136523
74	0xbce2982b	-0.02766045
75	0xbcbc3871	-0.022976132
76	0xbdaf93b6	-0.085730955
77	0xbdc38d3b	-0.09548422
78	0xbc3b8c13	-0.0114469705
79	0xbdd49695	-0.10380284
80	0xbd1f22f2	-0.038851686
81	0xbdc119d2	-0.09428753
82	0xbd688428	-0.05676666
83	0x3d575680	0.052572727
84	0x3d47e41f	0.048801538
85	0xbdb2e9b6	-0.08735983
86	0xbda1032a	-0.078619316
87	0xbd7fa330	-0.062411487
88	0xbd9cf2c1	-0.07663489
89	0xbc412194	-0.011787791
90	0x3d8478e6	0.06468372
91	0xbd02c365	-0.031924624
92	0xbdd6efbf	-0.10494947
93	0x3b9ee8f9	0.00484955
94	0xbd1005c0	-0.035161734
95	0xbc173334	-0.009228516
96	0x3d1803b1	0.037112895
97	0xbdf49e79	-0.11944289
98	0x3cb602b9	0.022218095
99	0xbda144b8	-0.07874435
100	0xbcd9f314	-0.026605166
101	0x3d882fd9	0.06649751
102	0xbc32ac5a	-0.01090535
103	0x3d2548d4	0.040352657
104	0x3bfe189c	0.0077543985
105	0xbd4e5887	-0.050377395
106	0xbcc7f5b3	-0.02440915
107	0x3da95873	0.082688235
108	0xbd922328	-0.07135612
109	0x3d6a89a5	0.057260174
110	0xbd9691a2	-0.07351996
111	0xbd378c07	-0.044811275
112	0xbd334d40	-0.043774843
113	0x3cb932f7	0.02260731
114	0xbd6b5b7f	-0.057460304
115	0x3a042285	0.0005040544
116	0x3bfce5d6	0.0077178283
117	0x3d50ffb8	0.051025122
118	0xbd90285f	-0.0703895
119	0xba98744c	-0.0011631339
120	0x3ce8817d	0.028382057
121	0xbde8a111	-0.11358846
122	0xbde0d1bd	-0.109775044
123	0xbce6b7bd	-0.028163785
124	0xbd26b055	-0.040695507
125	0x3d5fa432	0.05459995
126	0x3a12029a	0.00055698457
127	0xbd6697db	-0.056297164
128	0xbd255ea4	-0.04037346
129	0x3d85180a	0.06498726
130	0xbbcb4a4c	-0.0062039252
131	0x3d326755	0.043555576
132	0xbd1a02c9	-0.037600312
133	0x3d27f371	0.04100365
134	0x3d426f39	0.04746935
135	0xbde2a658	-0.11066884
136	0xbb9dbc0c	-0.0048136767
137	0xbc0add3a	-0.008475596
138	0xbda81dc5	-0.08208803
139	0xbcca828b	-0.02472045
140	0xbd4b28cc	-0.049599454
141	0xbc735860	-0.014852613
142	0x3d901b96	0.070365116
143	0xbdd95993	-0.10612788
144	0xbd0a6a07	-0.03379252
145	0x3cad5f85	0.021163711
146	0xbcfee345	-0.03111423
147	0xbc830a7f	-0.015996216
148	0xbd8fe77e	-0.070265755
149	0x3c95c905	0.01828433
150	0x3ce1b9ee	0.027554478
151	0xbdc4c039	-0.09606976
152	0xbd46979a	-0.048484422
153	0xbd394fbe	-0.045242064
154	0x3c9e6d39	0.01933919
155	0xbba35857	-0.004984896
156	0xbcd40437	-0.025880916
157	0x3c277a78	0.01022207
158	0xbc174865	-0.009233569
159	0x3d5f90d6	0.054581486
160	0x3cd9df52	0.026595745
161	0xbd33951f	-0.043843385
162	0x3d4a8cd0	0.049450696
163	0xbd150a91	-0.03638703
164	0x3ca8b6c8	0.02059497
165	0xbdc8d0f8	-0.098054826
166	0xbdc480a8	-0.09594852
167	0xbc3e0715	-0.011598368
168	0xbc9274bf	-0.017877935
169	0xbc58ab75	-0.013224472
170	0xbdbe75d9	-0.092998214
171	0xbd7864d8	-0.060643047
172	0xbdae407c	-0.08508393
173	0xbcf72233	-0.030167675
174	0xbd42f281	-0.04759455
175	0xbd7d281e	-0.061805837
176	0x3b878c8d	0.004136628
177	0xbd4cacf3	-0.049969625
178	0x3c89293a	0.016743291
179	0x3d35f2ea	0.044421114
180	0x3d0be3ff	0.03415298
181	0xbd5c5a30	-0.053796947
182	0x3d0408fb	0.032235127
183	0xbd59b807	-0.053154018
184	0x3d02ed30	0.03196448
185	0x3b7d56fd	0.0038656585
186	0x3cda336c	0.026635848
187	0xbd533bb7	-0.05157062
188	0xbb922c3e	-0.0044608405
189	0x3d959631	0.07304037
190	0xbdcfc5b8	-0.10145134
191	0xbd9ca0fb	-0.07647892
192	0xbdbabcc2	-0.09118034
193	0xbd763549	-0.06010941
194	0xbda70387	-0.0815497
195	0x3b673862	0.003528141
196	0xbd8c916c	-0.068636745
197	0xbcc65cf9	-0.024214255
198	0xbbf73f02	-0.007545353
199	0xbcedba17	-0.029019399
200	0x3b80d2c6	0.003931376
201	0xbca31986	-0.019909631
202	0xbd1a743c	-0.037708506
203	0x3be99cb8	0.007129278
204	0x3ce00402	0.027345661
205	0x3cd598f2	0.026073907
206	0xbdc09df3	-0.094051264
207	0x3d3e3b99	0.046443556
208	0xbd0327d2	-0.032020397
209	0x3d3a0931	0.04541892
210	0xbc91037c	-0.017701857
211	0x3ca160b4	0.019699432
212	0x3d1a39b2	0.03765268
213	0x3d1f648e	0.038914256
214	0x3d39404c	0.045227334
215	0xbd8de7e3	-0.069289945
216	0xbb2a1a7e	-0.0025955732
217	0x3cac9034	0.021064855
218	0xbdb917b7	-0.09037726
219	0xbdc73063	-0.09726026
220	0xbd1148ac	-0.035469696
221	0x3d5d7c7a	0.05407379
222	0xbb3a7935	-0.0028453593
223	0x3d86b495	0.06577412
224	0xbd2cbbbb	-0.04217122
225	0xbd39a8ae	-0.04532688
226	0xbdc84959	-0.09779615
227	0x3d1d3b0f	0.0383864
228	0xbdb29d95	-0.08721463
229	0xbd875c83	-0.06609442
230	0xb9251e1d	-0.00015746844
231	0xba9d579e	-0.0012004261
232	0xbda4ee6b	-0.08053287
233	0xbd071cf9	-0.032986615
234	0xbd9fb6c8	-0.07798535
235	0x3bc62020	0.00604631
236	0x3c56da99	0.013113641
237	0x3b890e94	0.004182646
238	0x3c4ca1c3	0.012489739
239	0xbd8ddff9	-0.06927485
240	0xbd6526c7	-0.055945184
241	0xbd86a440	-0.06574297
242	0x3d3ded1c	0.046368703
243	0xbdb0465d	-0.08607171
244	0xbcafefca	-0.021476645
245	0x3d12cdf3	0.03584094
246	0x3d53a1aa	0.051667847
247	0xbd926541	-0.07148219
248	0x3d1733c5	0.036914606
249	0xbda1c0b3	-0.078980826
250	0x3c2a0802	0.010377886
251	0xbd872826	-0.065994546
252	0xbd4efa99	-0.050531957
253	0xbd7ac10e	-0.061219268
254	0xbd3effb7	-0.046630587
255	0xbdae96be	-0.085248455

fc2.bias f4 [128]
0	0x3d022579	0.031774018
1	0xbdcc7c4d	-0.09984646
2	0xbe7f7fae	-0.2495105
3	0xbdb77e98	-0.08959693
4	0xbf7ce3ec	-0.9878528
5	0xbd92b5e1	-0.07163597
6	0xbed71b53	-0.42013034
7	0xbeec8df1	-0.46202043
8	0xbe0e8b68	-0.13920367
9	0xbee2289a	-0.44171602
10	0xbf1b6c2b	-0.60711926
11	0xbabfece1	-0.0014642739
12	0xbf677071	-0.90405947
13	0xbe893384	-0.26797116
14	0xbeda170c	-0.42595708
15	0xbd8f888b	-0.070084654
16	0xbe10760d	-0.14107533
17	0xbecea119	-0.40357283
18	0xbec24b5e	-0.37948126
19	0xbdf62713	-0.120191716
20	0xbf08fab4	-0.5350754
21	0xbe3de832	-0.18545607
22	0xbe993a51	-0.29927304
23	0x3d46c6a5	0.048529286
24	0xbe13ad29	-0.14421524
25	0xbf2c1bd7	-0.6722998
26	0xbe82af29	-0.25524262
27	0xbe2e0f69	-0.16998066
28	0xbf257190	-0.6462641
29	0xbe5b319e	-0.21405646
30	0xbd9d21d9	-0.076724716
31	0xbd18df0c	-0.03732209
32	0xbecadaa6	-0.3961994
33	0xbdea8eb9	-0.114530034
34	0xbee34253	-0.4438654
35	0x3e9b6453	0.3034998
36	0xbf3b58d0	-0.7318239
37	0xbf1eacd5	-0.6198247
38	0xbc3e8787	-0.011628992
39	0xbe7140b5	-0.2355984
40	0xbd9ee2b0	-0.07758081
41	0xbee34b18	-0.4439323
42	0xbd953053	-0.07284608
43	0xbf99492f	-1.1975459
44	0x3d146a99	0.036234472
45	0xbea21d49	-0.31662968
46	0xbf5caf94	-0.8620541
47	0x3ef0ae44	0.47007954
48	0xbf575881	-0.8411942
49	0xbd94c145	-0.07263426
50	0xbf173d19	-0.590776
51	0x3ea28ff1	0.31750444
52	0xbdb21daa	-0.08697064
53	0x3d510c69	0.051037226
54	0x3e125c73	0.14293079
55	0xbd2f4a77	-0.042795625
56	0xbe20e157	-0.1571096
57	0x3e66ae76	0.22527489
58	0xbea07627	-0.31340143
59	0xbd530e02	-0.05152703
60	0xbf55971c	-0.834337
61	0xbcb55e91	-0.02213982
62	0xbe08996c	-0.13339776
63	0x3ceb71cb	0.028740784
64	0xbec2bcda	-0.38034707
65	0x3bf0d536	0.0073496355
66	0xbf20b02b	-0.6276881
67	0xbe3ddf0c	-0.18542117
68	0xbeaf5a16	-0.34248418
69	0xbd280a08	-0.04102519
70	0xbcc40f86	-0.023933183
71	0xbe99db15	-0.3004996
72	0x3c361e86	0.011115676
73	0xbdf35d2c	-0.118830055
74	0xbf0a9612	-0.5413524
75	0xbe685867	-0.22689973
76	0xbf79aace	-0.9752625
77	0xbe13aea2	-0.14422086
78	0xbe2ab958	-0.16672266
79	0xbec0ecab	-0.37680563
80	0xbebf7346	-0.37392634
81	0x3ec0cd85	0.376568
82	0xbd8421e0	-0.06451774
83	0xbcd8c293	-0.026459968
84	0x3f2d588c	0.67713237
85	0xbd1de91e	-0.038552396
86	0xbe9c926f	-0.3058047
87	0xbe151fee	-0.14562961
88	0xbe853036	-0.26013345
89	0xbf30a787	-0.69005626
90	0xbe89aea4	-0.26891053
91	0x3cfef69a	0.031123448
92	0xbd90f245	-0.07077459
93	0xbe6009c2	-0.21878722
94	0xbd931086	-0.07180886
95	0xbe763650	-0.24044156
96	0xbf06ccb7	-0.5265612
97	0xbdaebaed	-0.08531747
98	0xbcf40192	-0.029785905
99	0xbeb2f1c8	-0.3495009
100	0xbfa6731d	-1.300388
101	0xbf413818	-0.7547622
102	0xbe2364df	-0.15956448
103	0xbd51c284	-0.051210895
104	0xbf352cff	-0.70771784
105	0xbdf9f717	-0.12205332
106	0xbe040255	-0.12891515
107	0xbf459512	-0.7718059
108	0xbdf8ca56	-0.121479675
109	0xbdef7791	-0.11692727
110	0xbd62ea89	-0.05539945
111	0xbe9d0d51	-0.30674222
112	0xbdbf7d83	-0.09350111
113	0xbf1161a9	-0.5678964
114	0xbe15d2da	-0.14631215
115	0xbb3c7976	-0.002875892
116	0xbe0b2de6	-0.13591728
117	0xbd66e473	-0.05637021
118	0xbf706c29	-0.9391504
119	0x3e1c4a20	0.15262651
120	0xbc8f1c0f	-0.017469434
121	0xbea4431e	-0.32082456
122	0xbf32d3ef	-0.69854635
123	0xbde76ecf	-0.11300432
124	0xbe8176d5	-0.25285974
125	0x3b647766	0.0034861206
126	0xbcee4b12	-0.02908853
127	0xbb392b24	-0.0028254474

fc3.weight f4 [2, 128]
0	0xbc9d0360	-0.019166648
1	0xba274f9c	-0.0006382407
2	0x3ced3ca0	0.028959572
3	0x3c9fc9f0	0.019505471
4	0x3fbc2674	1.4699235
5	0xbd78bf3b	-0.060729247
6	0xbe022e43	-0.1271296
7	0x3d974166	0.07385521
8	0x3ee2ae1a	0.44273454
9	0x3b7a7711	0.0038217942
10	0x3e7a7756	0.24459586
11	0x3e87a528	0.26493192
12	0xbd34a836	-0.04410573
13	0x3e49824c	0.1967861
14	0x3ba4add4	0.0050256047
15	0x3e02e276	0.127817
16	0xbbcb4d70	-0.0062042996
17	0xbe56682b	-0.20938174
18	0xbe1e5e2c	-0.15465611
19	0x3bf654dd	0.0075174407
20	0x3f04635f	0.5171413
21	0xbe437c20	-0.19090319
22	0xbe3cc733	-0.18435363
23	0x3e3c356f	0.18379758
24	0xbe325509	-0.17415251
25	0x3ef3f0ed	0.4764475
26	0x3cd88776	0.02643178
27	0xbc72efb9	-0.014827662
28	0x3f8472ed	1.0347573
29	0x3eda6a51	0.42659238
30	0x3c3213d9	0.01086899
31	0xbb2e6923	-0.002661296
32	0xbe7aca5f	-0.24491261
33	0xbce88ce3	-0.028387493
34	0x3ef08ed3	0.46983966
35	0x3d9c8ba9	0.076438256
36	0x3d5f9b1a	0.054591276
37	0xbf1c0616	-0.60946786
38	0xbcde4551	-0.027132662
39	0xbec39f4a	-0.38207465
40	0x3dfce0da	0.123475745
41	0xbda6a182	-0.08136274
42	0xbb9462af	-0.0045283656
43	0xbed835b0	-0.4222846
44	0xbebd2506	-0.3694231
45	0xbdcb3636	-0.09922449
46	0x3d58f382	0.052966602
47	0xbd24484b	-0.040108006
48	0xbe8c8ce9	-0.27451256
49	0x3c88e92b	0.016712746
50	0x3dc40979	0.09572119
51	0x3f08474f	0.5323381
52	0x3cd224a7	0.025652243
53	0xbf029a02	-0.5101625
54	0xbc1c90ad	-0.009555978
55	0x3f33e709	0.70274407
56	0xbe173984	-0.14768034
57	0x3f54c4c8	0.83112764
58	0x3ad0cbfc	0.0015929933
59	0xbe662bbe	-0.22477624
60	0xbf17a28f	-0.5923242
61	0xbb8e9d50	-0.004352249
62	0xbba0c7db	-0.004906637
63	0xbe72f5a0	-0.23726511
64	0xbe99ff1d	-0.30077448
65	0xbcd859ed	-0.026410067
66	0xbe1b40a5	-0.15161379
67	0xbde357a3	-0.111007
68	0x3d636f94	0.05552633
69	0xbb1b380e	-0.0023684534
70	0x3c892496	0.016741078
71	0x3e205fa9	0.15661491
72	0xbc9baaf0	-0.019002408
73	0x3c862c84	0.016378649
74	0xbe9059cd	-0.28193513
75	0x3d85982d	0.06523166
76	0xbf1cc38f	-0.612359
77	0xbf41c5db	-0.7569253
78	0x3c239214	0.009983558
79	0x3ee3f1e7	0.44520494
80	0x3fc9e409	1.5772716
81	0x3e7cc5e1	0.2468486
82	0x3c55cc4a	0.013049195
83	0xbefa248b	-0.48856005
84	0x3d236386	0.039889835
85	0xbc1cd858	-0.009573065
86	0xbcbb09b6	-0.022831779
87	0xbc21edbc	-0.00988334
88	0x3cce724e	0.02520099
89	0xbf6d632b	-0.92729443
90	0xbdf2be34	-0.118526846
91	0x3deb2303	0.11481287
92	0xbc517e24	-0.012786422
93	0xbe202348	-0.15638459
94	0x3b459950	0.0030151196
95	0xbc4aa0f2	-0.012367474
96	0x3ef7658d	0.48319665
97	0xbc79b82f	-0.015241667
98	0x3c2c86a5	0.010530149
99	0xbcc90b67	-0.02454157
100	0xbd7a4dd5	-0.061109383
101	0x3edff78d	0.43743554
102	0x3b3dada8	0.0028942619
103	0xbadba0a2	-0.0016756246
104	0xbe9fed0f	-0.3123555
105	0x3dd28391	0.102790006
106	0xbca79ccd	-0.02046051
107	0x3e7d659c	0.24745792
108	0xbdb5dbf7	-0.088798456
109	0xbd8b5ca5	-0.0680478
110	0x3c057e62	0.008147808
111	0x3ee808f6	0.45319337
112	0x3bd61c6b	0.0065341494
113	0xbec62006	-0.38696307
114	0xbea8c0e4	-0.32959664
115	0xbc37bab1	-0.011213944
116	0x3da8df07	0.08245664
117	0x3d0ba398	0.034091562
118	0xbd27a26a	-0.040926374
119	0xbf072b22	-0.5280019
120	0x3c2a4d32	0.010394381
121	0x3d309f5e	0.043120734
122	0xbdfdcb87	-0.123923354
123	0xbb3c6df2	-0.0028752056
124	0x3c0dd82d	0.008657497
125	0x3a116f0c	0.00055478583
126	0x3c704c63	0.0146666495
127	0xbf2eb145	-0.6823924
128	0x3ac00211	0.0014649053
129	0x3cce5bae	0.0251902
130	0x3e2b0f47	0.16705047
131	0xbd66fc59	-0.056393
132	0x3f331149	0.6994825
133	0xbc093d37	-0.008376411
134	0x3e9a4af3	0.30135307
135	0xbecbc61f	-0.39799592
136	0xbda3a326	-0.079901025
137	0xbf27dd4b	-0.6557204
138	0xbf94f5b0	-1.1637478
139	0xbf36dfdb	-0.71435326
140	0x3ec6d206	0.3883211
141	0xbe312ab4	-0.17301446
142	0xbfe57dc2	-1.7929003
143	0x3d0bf6f2	0.034171052
144	0xbb8c46b1	-0.004280888
145	0x3e55e077	0.20886408
146	0xbd48cf30	-0.049025714
147	0xbc8d8c51	-0.017278822
148	0x3e342482	0.17592052
149	0x3e9f1a70	0.31074858
150	0x3d953461	0.07285381
151	0xbe1aaae5	-0.15104254
152	0xbcab043e	-0.020876046
153	0xbf286159	-0.6577354
154	0x3aeafcd8	0.0017928137
155	0x3e19ffe4	0.15039021
156	0x3ba6fd61	0.005096123
157	0xbe1239bf	-0.14279841
158	0x3e191217	0.14948307
159	0x3cefdcd8	0.029280111
160	0x3f965987	1.1746072
161	0xbbd9406b	-0.0066299937
162	0x3b2f65fa	0.0026763664
163	0x3ef882b8	0.4853723
164	0xbf784733	-0.9698364
165	0x3ea419e1	0.32050994
166	0x3c262ffb	0.010143275
167	0xbf03860a	-0.513764
168	0x3db1a8d9	0.08674783
169	0xbef65a0c	-0.48115575
170	0x3bf0e960	0.007352039
171	0x3efe6413	0.49685726
172	0x3e8ccf77	0.27502033
173	0xbdb25fe5	-0.08709697
174	0xbe06e0ca	-0.13171688
175	0xbf5f62c7	-0.872601
176	0x3e28257e	0.16420552
177	0xbd39850a	-0.04529289
178	0xbfd88ad6	-1.6917369
179	0x3ce37039	0.027763473
180	0xbb080257	-0.0020753348
181	0x3d352f2a	0.044234432
182	0xbeee8e6e	-0.4659304
183	0x3db53398	0.08847731
184	0xbd8209b9	-0.06349511
185	0x3e54655d	0.20741792
186	0x3ec72a47	0.38899443
187	0x3e20fa50	0.15720487
188	0x3f3af130	0.7302427
189	0xbd5800d0	-0.05273515
190	0x3df89dc5	0.12139467
191	0x3c29ff8d	0.010375869
192	0x3f30ced4	0.69065595
193	0x3c95d7bf	0.018291352
194	0xbf24ac03	-0.6432497
195	0xbdca2f0a	-0.09872253
196	0xbf184835	-0.5948518
197	0x3c45577b	0.012044783
198	0x3de26321	0.110540636
199	0xbcc26293	-0.023728644
200	0xbbb9a21b	-0.0056650764
201	0xbd21822b	-0.03943078
202	0x3e06993b	0.1314439
203	0xbdcdf74c	-0.10056934
204	0x3e83fde0	0.2577963
205	0xbf994c58	-1.1976423
206	0x3d5a26ad	0.05325954
207	0xbd6ab418	-0.057300657
208	0xbeb89e15	-0.36058107
209	0x3c0440b6	0.008072069
210	0xbcb0a577	-0.021563275
211	0xbea70170	-0.32618284
212	0xbf2afd95	-0.66793185
213	0x3c7c2862	0.015390487
214	0xbed4dfea	-0.41577083
215	0xbd140b05	-0.03614332
216	0xbe3b6149	-0.1829883
217	0x3f830782	1.0236666
218	0xbdde1405	-0.10843662
219	0x3d0b2066	0.033966444
220	0x3d1cf5aa	0.03832022
221	0xbe8c697a	-0.27424222
222	0xbccd36c9	-0.025050538
223	0xbe78a744	-0.24282557
224	0x3f121576	0.57063997
225	0xbcc98ea8	-0.024604157
226	0x3a99e7bd	0.0011742037
227	0x3d4b1895	0.04958399
228	0x3d9c2166	0.07623558
229	0xbdc14fd6	-0.094390556
230	0xbaca841b	-0.0015450747
231	0x3b2f7e0d	0.0026778013
232	0xbeb87d96	-0.36033314
233	0xbbf96dac	-0.007611951
234	0xbd043a80	-0.032282352
235	0x3e9c87d7	0.30572388
236	0xbd989af9	-0.07451434
237	0xbc389015	-0.011264821
238	0xbd82dd97	-0.06389921
239	0x3dcf1615	0.10111634
240	0xbcee4e47	-0.02909006
241	0xbea6c278	-0.32570243
242	0xbeab3984	-0.33442318
243	0x3b1483e5	0.0022661623
244	0xbdc8833e	-0.097906575
245	0xbce43b24	-0.027860232
246	0xbd1a6785	-0.03769638
247	0xbf58d107	-0.8469395
248	0xbe3d8df2	-0.18511179
249	0xbd48787f	-0.04894304
250	0xbeeeab50	-0.46615076
251	0xbd6f3b08	-0.058405906
252	0x3ed1f8a7	0.4101002
253	0xbc96227a	-0.018326987
254	0x3d02b8d3	0.031914543
255	0xbc988362	-0.018617336

fc3.bias f4 [2]
0	0x3f8d88df	1.1057395
1	0x3e73b066	0.2379776
