checkpoint_normalizer.pth (torch, 875 bytes, 1 tensors)

fc.weight f4 [8, 2]
1.0471882 1.1035486 -1.0080372 -1.0142589 1.0027843 1.0003203 -1.0085686 0.99898386
-0.9130144 0.89480424 0.9527219 -0.93730295 -1.004958 -1.0077611 -1.0084704 0.9990356
00000000: 430a 863f 1541 8d3f 5d07 81bf 3cd3 81bf
00000010: 3c5b 803f 7f0a 803f c718 81bf 68bd 7f3f
00000020: 50bb 69bf e411 653f 95e5 733f 16f3 6fbf
00000030: 77a2 80bf 51fe 80bf 8f15 81bf ccc0 7f3f
